Deep Learning/code/logs/part1/best_model.pth.tar (torch_old, 452377 bytes, 20 tensors)

features.0.weight f4 [15, 1, 9, 9]
0	0x3c82dc37	0.015974147
1	0x3d9410f5	0.07229797
2	0xbc18b2a7	-0.009319938
3	0x3b89cbb2	0.0042051906
4	0x3cf8ca3e	0.030369874
5	0x3d24cd8c	0.040235087
6	0x3d298220	0.041383862
7	0x3d8a6565	0.06757621
8	0x3d9fef91	0.078093655
9	0x3ce1fb14	0.027585544
10	0x3d749503	0.05971242
11	0x3caa04a2	0.020754162
12	0xbc3c508c	-0.011493813
13	0xbcd5054a	-0.026003499
14	0x3bf769ae	0.00755044
15	0xbd15e6b3	-0.036596965
16	0xbd4ddf24	-0.05026163
17	0xbc0f3af0	-0.008742079
18	0xbc9be4d9	-0.019030022
19	0x3da0324a	0.07822092
20	0x3da465a5	0.080272
21	0x3d29b497	0.04143199
22	0x3d117fb1	0.035522167
23	0x3cc846a5	0.024447748
24	0x3c06f868	0.008237936
25	0x3c1ea5fe	0.00968313
26	0x3ce7241d	0.028215462
27	0x3d32b9dc	0.04363428
28	0x3de8e14f	0.11371099
29	0x3e2080a1	0.15674068
30	0x3e435be1	0.19078018
31	0x3de64c13	0.11244979
32	0x3d7c7cfe	0.06164264
33	0x3d94cd90	0.072657704
34	0x3d533749	0.051566396
35	0x3c4de03d	0.01256567
36	0x3e000d15	0.1250499
37	0x3e62288d	0.22085781
38	0x3e882b07	0.26595327
39	0x3e69cf65	0.22833021
40	0x3dd46e2a	0.103725746
41	0x3cc9f6c4	0.0246538
42	0x3d501959	0.050805423
43	0xbc0ed0c2	-0.008716764
44	0x3d779824	0.060447827
45	0x3d140d1a	0.036145307
46	0x3e125d9a	0.14293519
47	0x3e497ebe	0.19677255
48	0x3dc5537b	0.09635063
49	0xbd0840a6	-0.03326478
50	0xbdf80c08	-0.1211167
51	0xbd882e59	-0.06649465
52	0xbd96c3ed	-0.073615886
53	0x3c961f16	0.01832537
54	0x3dba55dd	0.09098408
55	0x3de1226a	0.10992892
56	0x3dd1d2ed	0.10245309
57	0xbcf395fd	-0.029734606
58	0xbd7c08fc	-0.061532006
59	0xbdee2e11	-0.1162988
60	0xbd9750dd	-0.0738847
61	0xbd021088	-0.031754047
62	0x3cfe247d	0.031023258
63	0x3d4fba8b	0.05071501
64	0x3cecd2c2	0.02890909
65	0xbc8e9891	-0.017406734
66	0xbd906509	-0.07050521
67	0xbdad8046	-0.08471732
68	0xbdad69fa	-0.08467479
69	0xbd50312f	-0.050828155
70	0x3bc70f9a	0.006074858
71	0xbca22c89	-0.019796627
72	0x3ce96aae	0.028493252
73	0xbc1729fb	-0.0092263175
74	0xbdd254b0	-0.10270059
75	0xbe025232	-0.12726668
76	0xbe02e4e7	-0.12782632
77	0xbe2b0225	-0.16700037
78	0xbe27f3ba	-0.16401568
79	0xbd8424cd	-0.06452332
80	0xbd8c8999	-0.06862182
81	0xbe069068	-0.13141024
82	0xbe090cc3	-0.13383774
83	0xbe012a93	-0.12613897
84	0xbdf452f4	-0.119298846
85	0xbd8f314f	-0.06991827
86	0xbdb83b14	-0.08995643
87	0xbda5adf1	-0.08089817
88	0xbdfbfcc5	-0.12304071
89	0xbde60558	-0.11231488
90	0xbe21e131	-0.1580856
91	0xbdf752db	-0.1207635
92	0xbe13e3f7	-0.1444243
93	0xbdc14a1b	-0.094379626
94	0xbdcf7037	-0.10128825
95	0xbe134b1d	-0.14384122
96	0xbe0b24fa	-0.13588324
97	0xbe333245	-0.17499645
98	0xbe15eca5	-0.14641054
99	0xbe325b6b	-0.17417686
100	0xbe113364	-0.1417976
101	0xbe3afa3d	-0.18259521
102	0xbdfcee1d	-0.12350104
103	0xbdbdc57e	-0.09266184
104	0xbdb4a9f1	-0.08821476
105	0xbe1d17d1	-0.15341116
106	0xbe45dd6a	-0.19322744
107	0xbe1ca9f9	-0.15299214
108	0xbe3851db	-0.17999975
109	0xbe1419a5	-0.14462908
110	0xbe152a7e	-0.1456699
111	0xbdd76b40	-0.10518503
112	0xbd9dc39b	-0.077033244
113	0xbda910d2	-0.08255161
114	0xbde6b1d5	-0.112643875
115	0xbdf04207	-0.11731344
116	0xbdc7d528	-0.09757453
117	0xbe4c3e5c	-0.19945663
118	0xbe3f1218	-0.18659246
119	0xbe3a1791	-0.18173052
120	0xbdffaab3	-0.1248373
121	0xbdf6646d	-0.120308734
122	0xbdb26bb4	-0.08711949
123	0xbdeb7724	-0.11497334
124	0xbdf3a83f	-0.11897325
125	0xbd9252c2	-0.07144691
126	0xbe6724b2	-0.22572592
127	0xbe5dd337	-0.21662603
128	0xbe68c05f	-0.22729634
129	0xbe5388d4	-0.20657665
130	0xbe090460	-0.13380575
131	0xbdf1b1d2	-0.11801495
132	0xbe035763	-0.12826304
133	0xbe291d71	-0.16515137
134	0xbe19d4bd	-0.1502256
135	0xbe2e980e	-0.17050192
136	0xbe474079	-0.19458188
137	0xbe4061ff	-0.18787383
138	0xbe424342	-0.1897097
139	0xbe1c9804	-0.15292364
140	0xbe149582	-0.14510158
141	0xbe24d771	-0.1609781
142	0xbe35b570	-0.17744994
143	0xbe305c4b	-0.17222707
144	0xbdc72871	-0.097245105
145	0xbde2c875	-0.110733904
146	0xbdaed5ae	-0.0853685
147	0xbd6bbd4c	-0.057553574
148	0xbcfc106d	-0.030769551
149	0xbdf9d1c7	-0.12198215
150	0xbe209862	-0.1568313
151	0xbe19de4c	-0.15026206
152	0xbdfe42d1	-0.12415088
153	0xbde112a0	-0.109898806
154	0xbd845682	-0.064618126
155	0xbd8b18d0	-0.06791842
156	0xbceab6d3	-0.02865163
157	0xbc7aaf1d	-0.015300539
158	0xbde93da9	-0.11388714
159	0xbe0ab663	-0.13546138
160	0xbe0673ce	-0.13130113
161	0xbe11e286	-0.14246568
162	0xbd251a9e	-0.040308587
163	0xbbb95f45	-0.005657109
164	0x3c715b02	0.014731171
165	0xbbb8ea3b	-0.005643157
166	0x3b91dbf3	0.004451269
167	0x3c29137e	0.010319589
168	0x3ca5372d	0.020167911
169	0xbcb33b7a	-0.021878947
170	0xbd21e6f1	-0.039526884
171	0xbce41d7f	-0.027846096
172	0x3d3f9658	0.04677424
173	0x3d767481	0.0601697
174	0x3d28b3a1	0.041186932
175	0x3c7e9d38	0.015540414
176	0x3be4716c	0.0069715288
177	0x3c498bac	0.012301367
178	0xbd20feb4	-0.039305404
179	0xbd7b83c0	-0.061404943
180	0x3cbd72f9	0.023126112
181	0x3d497a1d	0.049188722
182	0x3d906893	0.07051196
183	0x3d415f09	0.047209773
184	0x3c66f415	0.01409628
185	0xbcd7b00f	-0.026329068
186	0xbc0cf8d6	-0.008604249
187	0xbd0ad98b	-0.03389887
188	0xbcf98309	-0.03045799
189	0x3d4783d7	0.048709717
190	0x3d6d9853	0.058006596
191	0x3dc867e8	0.097854435
192	0x3d9d152c	0.07670054
193	0x3d87a005	0.06622318
194	0x3bf3e04d	0.00744251
195	0xbd4c8130	-0.04992789
196	0xbd413581	-0.047170166
197	0xbcb2ae7b	-0.021811714
198	0x3d3af026	0.04563918
199	0x3df1ffe4	0.118163854
200	0x3dcd7ad3	0.100331925
201	0x3dc16568	0.0944317
202	0x3d9679a6	0.07347421
203	0x3b1173fe	0.002219438
204	0xbd02c144	-0.031922594
205	0xbd25bb58	-0.040461868
206	0xbc8df762	-0.017329875
207	0x3d59e713	0.053198885
208	0x3dc58769	0.09644968
209	0x3de58cd5	0.11208502
210	0x3dee603f	0.11639451
211	0x3d84977b	0.06474205
212	0x3c183846	0.00929076
213	0xbc8fa03b	-0.017532459
214	0xbcb69d97	-0.022291942
215	0xbc9bf30d	-0.019036794
216	0x3db8c703	0.090223335
217	0x3de893f9	0.113563485
218	0x3dfd3879	0.12364287
219	0x3da959e5	0.08269099
220	0x3d2f822a	0.042848743
221	0x3cef29db	0.029194763
222	0x3c533595	0.012891193
223	0xbcee707f	-0.029106377
224	0xbc0be649	-0.008538791
225	0x3d7d08da	0.06177602
226	0x3d980cc3	0.07424309
227	0x3da18413	0.07886519
228	0x3d5d36ec	0.054007456
229	0x3c06c588	0.008225806
230	0xbcf14fb4	-0.02945695
231	0x3c8e79e8	0.017392114
232	0xbcbd004e	-0.023071434
233	0x3ba401c8	0.005005095
234	0x3c9bd6ce	0.019023325
235	0x3d036d13	0.032086443
236	0x3d14e618	0.036352247
237	0xbc6adb61	-0.014334531
238	0xbd8b2c8a	-0.067956045
239	0xbd274221	-0.04083455
240	0xbc549a20	-0.012976199
241	0xbad17b8d	-0.0015982256
242	0x3b5dec2b	0.003386269
243	0x3e1c0dd0	0.15239644
244	0xbe0788b0	-0.13235736
245	0x3caa2f33	0.02077446
246	0x3ef83836	0.48480386
247	0xbda5ffa8	-0.08105403
248	0xbec9c723	-0.39409742
249	0xbe1f284c	-0.15542716
250	0x3e06bec3	0.13158707
251	0x3ddd7dd3	0.10815015
252	0x3e283a09	0.16428389
253	0xbdcdaa97	-0.10042303
254	0x3ca20d7e	0.019781824
255	0x3f0b9fff	0.5454101

features.2.weight f4 [15]
0	0x3f648b00	0.892746
1	0x3ef6821d	0.48146144
2	0x3f313a77	0.69229835
3	0x3fb04301	1.3770448
4	0x3f1b24eb	0.6060321
5	0x3f87711d	1.0581394
6	0x3f9e512f	1.2368525
7	0x3f1486fa	0.5801846
8	0x3f4890b4	0.783458
9	0x3f1c467c	0.6104505
10	0x3f374cdd	0.7160166
11	0x3f20a16c	0.6274631
12	0x3fad4277	1.3535908
13	0x3fa63bca	1.2986996
14	0x3f28a5ab	0.6587779

features.2.bias f4 [15]
0	0x3f008562	0.50203526
1	0xbe242399	-0.16029204
2	0x3daf3ee3	0.085569166
3	0x3ea85a85	0.3288156
4	0x3c903b61	0.01760644
5	0x3dd9d6e5	0.10636691
6	0x3db831d0	0.08993876
7	0x3f0ddd57	0.5541586
8	0x3e5e8578	0.21730602
9	0xbe9580df	-0.29199883
10	0xbe6affb6	-0.22949108
11	0xbcccd4d7	-0.025003834
12	0xbdebf546	-0.115213916
13	0x3e408f8a	0.18804756
14	0x3e979937	0.2960908

features.2.running_mean f4 [15]
0	0x3f4e7294	0.8064358
1	0x4069a35e	3.6505961
2	0x3f2cd5a6	0.675135
3	0x3f3115c5	0.6917384
4	0x3fc2c820	1.5217323
5	0x3f28ea8c	0.6598289
6	0x3f4e93f4	0.8069451
7	0x3faeebb3	1.366568
8	0x402d9922	2.7124715
9	0x3f91010b	1.1328443
10	0x3fed650e	1.8546464
11	0x4022208d	2.5332367
12	0x3f4d65ea	0.80233634
13	0x3f6ad2b4	0.9172776
14	0x3f26cee9	0.6515947

features.2.running_var f4 [15]
0	0x3fb9520c	1.4478164
1	0x41b44198	22.532028
2	0x3f87e526	1.0616806
3	0x40020d86	2.0320754
4	0x406d8afa	3.7116075
5	0x3fd234c0	1.6422348
6	0x401ca950	2.447834
7	0x4089185e	4.2842245
8	0x4184fc33	16.623144
9	0x40060bde	2.0944743
10	0x410348a6	8.205236
11	0x41262fc5	10.3866625
12	0x40082cea	2.1277413
13	0x4069e8d5	3.654836
14	0x3f45666b	0.771094

features.4.weight f4 [25, 15, 5, 5]
0	0x3d2cf8ef	0.04222959
1	0x3c5d0520	0.013489991
2	0x3cabf00e	0.02098849
3	0x3d3a4d14	0.045483664
4	0x3d22f82c	0.039787456
5	0xbcd6e880	-0.026233912
6	0xbcd09baf	-0.02546486
7	0xbcddacfd	-0.027060026
8	0x3c0cd2ab	0.008595149
9	0xbce29f52	-0.02766386
10	0xbd334ba3	-0.043773305
11	0xbd7b5ad7	-0.06136593
12	0xbdaee1b1	-0.08539141
13	0xbd646e2f	-0.05576914
14	0xbd9d7e0e	-0.07690059
15	0xbd66f6a6	-0.056387566
16	0xbd94a7f8	-0.072586
17	0xbd8c517d	-0.0685148
18	0xbd9a7493	-0.07541766
19	0xbdafbd47	-0.08581024
20	0x3ae53d86	0.0017489649
21	0xbc9e8ea3	-0.019355124
22	0xbd1be914	-0.038064077
23	0xbce56994	-0.028004445
24	0xbd414094	-0.047180727
25	0xb9f0bc28	-0.00045916555
26	0x3c7fd5ce	0.01561494
27	0x3ba5b615	0.0050571063
28	0x3ce5346e	0.027979102
29	0x3d38f625	0.045156617
30	0x3c62999c	0.013830569
31	0x3b020470	0.001983907
32	0x3cc41ace	0.023938563
33	0x3ce1e1c5	0.027573476
34	0x3d5d2f42	0.054000147
35	0x3c9303fc	0.017946236
36	0x3cf799e9	0.030224757
37	0x3b3440a8	0.0027504358
38	0x3bf510b0	0.007478796
39	0x3d033ab8	0.03203842
40	0x3cd79a4d	0.026318694
41	0xbb04c4c9	-0.0020258895
42	0x3cce6c67	0.025198175
43	0x3d31a75f	0.04337251
44	0x3d0073d8	0.031360477
45	0x3d538e1e	0.051649205
46	0x3d87300f	0.06600963
47	0x3d654148	0.05597046
48	0x3d8815f4	0.06644812
49	0x3da46fdb	0.08029147
50	0xbce9eeec	-0.02855631
51	0xbc2a901f	-0.010410338
52	0xbd2184ac	-0.039433166
53	0xbd6aa6c5	-0.05728795
54	0xbd21ca76	-0.039499722
55	0xbda61e07	-0.08111196
56	0xbd8e4d9a	-0.06948395
57	0xbd8c0f6e	-0.068388805
58	0xbd868a42	-0.06569339
59	0xbd821d17	-0.06353205
60	0xbdb5c100	-0.088747025
61	0xbdac41ba	-0.08410974
62	0xbd78761f	-0.060659524
63	0xbd7cb482	-0.061695583
64	0xbd59b5ba	-0.053151824
65	0xbd3a871b	-0.045539003
66	0xbd2b048f	-0.041752394
67	0xbd60834e	-0.054812722
68	0xbd267afd	-0.040644635
69	0xbd7e43e0	-0.06207645
70	0xbd04ee9c	-0.032454118
71	0xbd0904c0	-0.033451796
72	0xbd132881	-0.0359273
73	0xbd656e3d	-0.056013335
74	0xbd6ae655	-0.057348568
75	0xbd7415d9	-0.059591148
76	0xbdc52230	-0.096256614
77	0xbe192eae	-0.14959213
78	0xbe26243e	-0.16224763
79	0xbdfbf035	-0.12301675
80	0xbddfa341	-0.1091981
81	0xbe0834fd	-0.13301463
82	0xbe47fb92	-0.1952956
83	0xbe4b857e	-0.19875142
84	0xbe2e2616	-0.17006716
85	0xbe2a18a4	-0.16610962
86	0xbe59e85e	-0.21280047
87	0xbe7609e9	-0.24027218
88	0xbe783688	-0.24239552
89	0xbe5b4bc3	-0.2141562
90	0xbe1a0ed4	-0.15044719
91	0xbe485cd2	-0.19566658
92	0xbe50966f	-0.20369886
93	0xbe48b1e8	-0.19599116
94	0xbe261ed1	-0.16222693
95	0xbd86b9ec	-0.065784305
96	0xbe1c3c6e	-0.15257427
97	0xbe380999	-0.17972411
98	0xbdf34483	-0.11878302
99	0xbdc761ea	-0.097354725
100	0x3c6cfe20	0.014464885
101	0x3bd8506e	0.006601385
102	0x3ccbdc5b	0.024885347
103	0x3d147dc7	0.036252763
104	0x3d93f92c	0.0722526
105	0xbbc7e0bf	-0.00609979
106	0xbcb10c52	-0.02161232
107	0xbc0d3f39	-0.0086210305
108	0x3c82ba20	0.015957892
109	0x3ce6d054	0.02817551
110	0xbc94764d	-0.018122816
111	0x3c2eee6a	0.0106769595
112	0x3ba5b252	0.005056658
113	0x3ca3b5f5	0.019984225
114	0x3cf4f592	0.029902253
115	0x3bf56f7b	0.007490096
116	0x3cacd15a	0.02109592
117	0x3cb8d3b6	0.02256189
118	0x3d2d3ec8	0.0422962
119	0x3d7032fe	0.05864238
120	0x3cda3fee	0.026641812
121	0x3d31c1a3	0.043397557
122	0x3d83448d	0.064095594
123	0x3d854386	0.0650702
124	0x3dd74b3f	0.10512399
125	0xbd9337e0	-0.07188392
126	0xbdb62b92	-0.08895029
127	0xbdcf5c97	-0.10125082
128	0xbda00bb2	-0.07814731
129	0x3c1856f5	0.009298076
130	0xbd896651	-0.067089684
131	0xbdbe6a64	-0.09297636
132	0xbdaeec30	-0.08541143
133	0xbd88cef8	-0.06680101
134	0xbc7d479c	-0.015458968
135	0xbd484226	-0.04889121
136	0xbd7f63a6	-0.06235089
137	0xbd6a80e6	-0.057251833
138	0xbd31e9a0	-0.043435693
139	0xbc2238b0	-0.009901211
140	0x3b9f1897	0.0048552263
141	0xbca728f5	-0.020405272
142	0xbd055859	-0.032554958
143	0xbca95f1c	-0.020675234
144	0x3d1bb8b7	0.038017955
145	0x3d6f9feb	0.05850212
146	0x3cd9ea7e	0.026601072
147	0x3c9eb1f9	0.019371973
148	0x3d1d8bc0	0.038463354
149	0x3dbfd7dd	0.093673445
150	0xbdb773a4	-0.089576036
151	0xbda3ea90	-0.080037236
152	0xbd8badcd	-0.06820259
153	0xbddd248d	-0.10797987
154	0xbdddd3c2	-0.10831405
155	0xbd7815f7	-0.060567822
156	0xbdfbeed8	-0.12301415
157	0xbddfcc96	-0.109276935
158	0xbdc72fac	-0.097258896
159	0xbdf14d60	-0.11782336
160	0xbe056322	-0.13026097
161	0xbe3ab85f	-0.18234394
162	0xbdd56b9e	-0.10420917
163	0xbd868f5e	-0.06570314
164	0xbda25d87	-0.07927995
165	0xbda53292	-0.08066286
166	0xbe0da57f	-0.13832663
167	0xbe03416d	-0.12817927
168	0xbdcec64b	-0.10096415
169	0xbdba2061	-0.09088207
170	0x3da752eb	0.08170112
171	0xbc51b5ed	-0.012799722
172	0xbc9462d2	-0.018113527
173	0xbc69c43e	-0.014267979
174	0x3b64a268	0.003488684
175	0xbd27b33d	-0.04094242
176	0xbd5133a9	-0.051074658
177	0xbcf02f00	-0.029319286
178	0xbc91a281	-0.017777683
179	0xbd143e3c	-0.036192164
180	0xbd8439c8	-0.064563334
181	0xbd6d063e	-0.05786728
182	0xbd94a95a	-0.07258864
183	0xbd15e33b	-0.036593657
184	0xbd366460	-0.04452932
185	0xbd971488	-0.07376963
186	0xbd90cffa	-0.070709184
187	0xbd8eb7e0	-0.06968665
188	0xbd6f5c3c	-0.05843757
189	0xbd49f761	-0.049308185
190	0xbd8054b1	-0.062661536
191	0xbd612b92	-0.054973193
192	0xbd8dc6bd	-0.06922672
193	0xbda39d46	-0.07988982
194	0xbd9c7659	-0.076397605
195	0x3a3f914f	0.00073077244
196	0xbd23f9ad	-0.04003303
197	0xbd3f5a58	-0.046717018
198	0xbd51ae60	-0.051191688
199	0xbcf684fd	-0.03009271
200	0xbc6eb59b	-0.014569665
201	0xbcbac33a	-0.02279817
202	0x3bbdf86f	0.005797438
203	0x3c9e5e96	0.019332211
204	0x3cbbc301	0.022920134
205	0xbd38a2cc	-0.04507713
206	0xbd629b5c	-0.055323943
207	0xbd7f48a8	-0.06232515
208	0xbd4bd7cd	-0.04976635
209	0xbd3c16b9	-0.045920108
210	0xbd9d2608	-0.076732695
211	0xbdb5641a	-0.088569835
212	0xbd5468a9	-0.051857624
213	0xbdb56753	-0.08857598
214	0xbd6a8013	-0.057251047
215	0xbd41a587	-0.047277
216	0xbd4ade97	-0.049528684
217	0xbd450576	-0.04810091
218	0xbd868f62	-0.06570317
219	0xbd7e3a7b	-0.06206749
220	0xbd18ca24	-0.03730215
221	0xbd02bb09	-0.031916652
222	0xbcb6f1ab	-0.022332033
223	0xbd0df9c5	-0.034662027
224	0xbd3846c0	-0.044989347
225	0x3aaa871c	0.0013010236
226	0x3c81fb0d	0.01586678
227	0x3c6d266f	0.014474495
228	0x3d2abf84	0.04168655
229	0x3d1e0ac9	0.038584504
230	0x3caac62d	0.02084645
231	0x3c0d9933	0.008642483
232	0x3cd803dc	0.026369028
233	0x3be35ec3	0.0069387867
234	0x3d06745e	0.03282582
235	0x3cafa2f7	0.021440012
236	0x3c72495e	0.014788
237	0xbbcbcd75	-0.0062195607
238	0x3c2df553	0.010617572
239	0x3d1e672b	0.038672607
240	0x3c394b18	0.011309408
241	0x3c43bef3	0.011947381
242	0x3cbf0e3d	0.023322219
243	0x3cb5e316	0.02220301
244	0x3d38ae24	0.04508795
245	0x3cbcbe7a	0.023040045
246	0x3caf8366	0.02142496
247	0x3d154fc5	0.036453027
248	0x3d60d34c	0.05488901
249	0x3dbae3fb	0.09125515
250	0xbd89eff8	-0.067352235
251	0xbdb81965	-0.089892186
252	0xbd8cc156	-0.068728134
253	0xbd43d2af	-0.047808345
254	0xbd90d582	-0.070719734
255	0xbda31bdb	-0.079642974

features.6.weight f4 [25]
0	0x3edf5444	0.43618977
1	0x3eb45582	0.35221487
2	0x3eb3ae90	0.35094118
3	0x3ec42286	0.3830759
4	0x3ec6a349	0.38796452
5	0x3eba6f06	0.3641283
6	0x3eb86e08	0.36021447
7	0x3ed17a5c	0.40913665
8	0x3edbb94f	0.42914817
9	0x3eb900e1	0.36133483
10	0x3ecb755c	0.39737976
11	0x3ed20288	0.41017556
12	0x3ec3ce0e	0.38243145
13	0x3eb8c91e	0.3609094
14	0x3eb30d68	0.34971166
15	0x3ebf44ee	0.37357277
16	0x3ec4d575	0.38444105
17	0x3ed4b774	0.41546214
18	0x3eac936a	0.33706218
19	0x3ec326f0	0.38115644
20	0x3ecc4818	0.39898753
21	0x3eb3d281	0.3512154
22	0x3eb79cc4	0.3586179
23	0x3ec38e48	0.3819449
24	0x3ec2a678	0.3801763

features.6.bias f4 [25]
0	0xbda373c1	-0.07981063
1	0xbe0fd7ef	-0.14047216
2	0xbe224695	-0.15847237
3	0xbe09f45c	-0.13472122
4	0xbe1992da	-0.14997426
5	0xbdb4d0a6	-0.08828859
6	0xbc003256	-0.007824501
7	0xbe6c75a2	-0.23091748
8	0xbe94b3a6	-0.2904331
9	0xbdec85e9	-0.11548979
10	0xbe7f0206	-0.24903116
11	0xbe23bbe4	-0.15989643
12	0xbd2c03f0	-0.041995943
13	0xbe17526b	-0.14777534
14	0xbe1af1aa	-0.1513125
15	0xbe0acbee	-0.13554356
16	0xbe5879a4	-0.21140152
17	0xbe34c684	-0.17653853
18	0xbe7177c2	-0.2358084
19	0xbe168353	-0.14698534
20	0xbe230f08	-0.15923703
21	0xbe0e0c74	-0.13871938
22	0xbdf9699f	-0.12178349
23	0xbde653e8	-0.112464726
24	0xbbe9f018	-0.007139217

features.6.running_mean f4 [25]
0	0x3e84db03	0.25948343
1	0x3eec5d28	0.46164823
2	0x3eb210d4	0.34778464
3	0x3e2f0932	0.17093351
4	0x3fb466fc	1.4093928
5	0x3e1bd7a4	0.15218979
6	0x3f900a0d	1.1253067
7	0x3ec65729	0.38738373
8	0x401304b9	2.2971632
9	0x3f100efe	0.56272876
10	0x3f4208bc	0.7579458
11	0x3e435cf5	0.19078429
12	0x3f0853ec	0.53253055
13	0x3e60b9d6	0.21945891
14	0x3e90db74	0.2829243
15	0x3ee68f1d	0.45031062
16	0x3f7b52a7	0.9817299
17	0x3ef369e9	0.4754174
18	0x401c4686	2.4418044
19	0x3e7d48a7	0.24734746
20	0x3eaff3b4	0.34365618
21	0x40639194	3.5557604
22	0x3fe0a553	1.7550453
23	0x3eae96ce	0.3409943
24	0x3ee0e945	0.4392797

features.6.running_var f4 [25]
0	0x3f42d84e	0.76111305
1	0x3fc1e598	1.5148191
2	0x3fb20a65	1.3909422
3	0x3ee019b9	0.43769625
4	0x40af5353	5.4789214
5	0x3eb06b69	0.34456947
6	0x40773c7f	3.8630674
7	0x3fe8dda0	1.8192635
8	0x4122e243	10.18024
9	0x401b376d	2.425258
10	0x4064173e	3.5639186
11	0x3eeb483a	0.45953542
12	0x3f90a2d4	1.1299691
13	0x3f0e0b6a	0.55486166
14	0x3f3c0e21	0.7345906
15	0x3fd53804	1.665772
16	0x4030e891	2.7641947
17	0x3fbe4dc9	1.4867488
18	0x4155513a	13.332331
19	0x3f216126	0.6303886
20	0x3f94789e	1.159931
21	0x414b4880	12.7052
22	0x40cd33f3	6.4125915
23	0x3fc89a69	1.5672122
24	0x3f92353d	1.1422497

classifier.weight f4 [15, 25, 11, 11]
0	0xbd2a6288	-0.041597873
1	0xbcad2649	-0.02113642
2	0xbd1bba27	-0.038019326
3	0xbd60120c	-0.05470471
4	0x3d29433f	0.041323896
5	0x3c9537eb	0.01821514
6	0x3cf4c04a	0.029876847
7	0xbcddb2fa	-0.027062882
8	0xbd703b1f	-0.058650132
9	0x3d2d6d48	0.042340547
10	0x3b772dbc	0.0037716469
11	0x3cc2ee15	0.023795167
12	0x3d97108d	0.07376204
13	0xbd0c8d93	-0.034314703
14	0xbc10c0c3	-0.0088350205
15	0x3dd118d4	0.10209814
16	0x3dad96ea	0.0847605
17	0x3d79eef7	0.06101891
18	0x3c5366f4	0.012902964
19	0xbd8f39e6	-0.06993465
20	0xbcb91187	-0.022591366
21	0x3a74e5fb	0.0009342131
22	0x3d603067	0.05473366
23	0x3d64c187	0.055848625
24	0x3ce1dd6e	0.027571406
25	0x3d1ef6f0	0.038809717
26	0x3d171d5a	0.036893226
27	0xbdc76e60	-0.09737849
28	0xbd1943c1	-0.03741813
29	0x3d086cc5	0.033306856
30	0xbcd3867a	-0.02582096
31	0x3d97a0fc	0.07403752
32	0x3d448b01	0.047984127
33	0xbd3e23bc	-0.046420798
34	0xbd2d15d1	-0.042257134
35	0xbd54dce7	-0.05196848
36	0xbd024a2f	-0.03180903
37	0xbc4083de	-0.01175019
38	0xbe0ba8e4	-0.13638645
39	0xbd9cfeeb	-0.07665809
40	0xbcd0d113	-0.02549032
41	0xbdbcb57b	-0.09214302
42	0x3b270718	0.0025486406
43	0xbc2ce202	-0.010551931
44	0xbd5c1a2a	-0.05373589
45	0xbd18de3f	-0.037321325
46	0xbb25992c	-0.00252683
47	0x3d8620a1	0.06549192
48	0x3da2dee9	0.07952673
49	0xbb37e228	-0.0028058384
50	0x3e11b00c	0.14227313
51	0x3daeff0b	0.08544739
52	0xbc290195	-0.010315319
53	0xbcd56419	-0.026048707
54	0xbd1dfcfe	-0.03857135
55	0xbd8a2754	-0.067457825
56	0x3d0d95fb	0.03456686
57	0x3d65ad0b	0.05607323
58	0x3ddb5dd0	0.10711253
59	0x3d71cc79	0.05903289
60	0x3d90c766	0.07069282
61	0x3d7302ba	0.059328772
62	0x3d46b390	0.048511088
63	0xbcaca139	-0.02107297
64	0xbd831513	-0.06400504
65	0xbcde8958	-0.0271651
66	0x3cb46484	0.022020586
67	0x3de4e7a8	0.111769974
68	0x3ddabc6f	0.10680472
69	0xbc00b5c3	-0.007855835
70	0x3d3d089a	0.04615078
71	0x3d1f1db0	0.03884667
72	0x3cac66e2	0.021045152
73	0x3db5995d	0.08867142
74	0x3e0cc326	0.13746318
75	0x3e3fc935	0.18729098
76	0xbc823488	-0.01589419
77	0xbc0f7155	-0.008755048
78	0x3c9b075c	0.018924408
79	0x3da4dc09	0.08049781
80	0x3dea5d43	0.114435695
81	0x3d4d5e76	0.050138913
82	0x3d48bdd4	0.04900916
83	0x3e2522cc	0.16126555
84	0x3c2f1fd3	0.01068874
85	0x3df805ed	0.12110505
86	0x3d868992	0.06569208
87	0x3d103c27	0.035213616
88	0x3d0cdfdd	0.03439318
89	0xbb4420ad	-0.0029926703
90	0xbd27f511	-0.041005198
91	0x3dc142c6	0.09436564
92	0x38d90cb8	0.000103497354
93	0xbc052b97	-0.008128068
94	0x3c2305e5	0.009950136
95	0x3d7959bc	0.060876593
96	0x3c3c5662	0.011495205
97	0xbd189680	-0.037252903
98	0x3d9991d2	0.07498516
99	0x3d8bd490	0.068276525
100	0x3d38eb52	0.045146294
101	0x3cd18963	0.025578206
102	0x3da36554	0.07978311
103	0x3da8c0fb	0.08239933
104	0x3cbc1428	0.02295883
105	0x3d2ebad2	0.042658634
106	0x3a0614cd	0.0005114794
107	0x3c0dd748	0.008657284
108	0xbc7a4b8d	-0.015276802
109	0x3d4ff9f9	0.050775502
110	0x3d2001de	0.03906428
111	0xbd018c5d	-0.031628
112	0x3ab33e03	0.0013675097
113	0x3dd9d295	0.106358685
114	0x3cd08398	0.025453374
115	0x3c23581d	0.009969738
116	0xbbca1359	-0.006166857
117	0x3d6028f3	0.054726552
118	0xbd0a75c5	-0.03380372
119	0x3d0e8495	0.03479441
120	0x3e1e793c	0.15475935
121	0x3d0ce0c1	0.03439403
122	0x3d363217	0.044481363
123	0xbd6c286e	-0.057655744
124	0x3daa9544	0.083292514
125	0xbb86ae68	-0.0041101463
126	0x397b6ded	0.00023978176
127	0xbcf84cc3	-0.03031004
128	0xbb8fac71	-0.0043845703
129	0x3cf27028	0.029594496
130	0x3d21d5e0	0.039510608
131	0x3c5e6a5e	0.013575165
132	0x3d568281	0.052370552
133	0x3d14a6c9	0.03629187
134	0xbd629733	-0.055319976
135	0x3b94bf73	0.004539424
136	0x3d259198	0.040422052
137	0x3d12f200	0.03587532
138	0xbd2b0d03	-0.041760456
139	0xbc6ee02f	-0.014579817
140	0x3dda68d6	0.10664527
141	0xbbc4dce9	-0.00600778
142	0x3dedab18	0.11604899
143	0x3d560b5a	0.05225692
144	0x3d7fa0bf	0.06240916
145	0xb94d8bba	-0.00019602376
146	0xbc2392c8	-0.009983726
147	0x3d0aa410	0.03384787
148	0x3cff253b	0.031145683
149	0x3dbe1c4a	0.092827395
150	0x3c3c7114	0.011501569
151	0x3cb0895e	0.021549877
152	0x3c5b27e4	0.01337621
153	0x3e0a0a58	0.13480508
154	0x3df6d854	0.1205298
155	0x3d53c8ab	0.051705044
156	0x3d1eda40	0.03878236
157	0xbd54a1d2	-0.051912136
158	0x3c6aeb4f	0.0143383285
159	0xbb867039	-0.0041027335
160	0x3da8260a	0.082103804
161	0x3d0c40ec	0.0342416
162	0xbcdf015c	-0.027222328
163	0x3d25ddf9	0.040494893
164	0x3d78768c	0.06065993
165	0x3c54e583	0.012994173
166	0xbc26743e	-0.01015955
167	0x3cf7ed79	0.030264603
168	0xbd45113d	-0.048112143
169	0xbd8c731f	-0.06857895
170	0x3cfa8df2	0.030585263
171	0x3d11ff8a	0.03564409
172	0xbd21f493	-0.039539885
173	0x3b062377	0.0020467916
174	0xbd8845c7	-0.06653934
175	0xbd1d4f38	-0.038405627
176	0x3cfb98c2	0.030712489
177	0xbd978f18	-0.0740034
178	0xbcac6b2e	-0.021047201
179	0xbc71417e	-0.014725087
180	0x3c687413	0.0141878305
181	0xbc62a04e	-0.013832165
182	0xbccb8d44	-0.024847634
183	0xbbd3adc7	-0.006459925
184	0xbcd2ebd3	-0.025747215
185	0xbc9e93ec	-0.019357644
186	0xbdc717e8	-0.09721357
187	0x3ccf3e49	0.025298255
188	0x3c0d8f6f	0.008640154
189	0x3d6af9bd	0.057367075
190	0xbc630ad1	-0.013857559
191	0xbd3f2529	-0.046666298
192	0x3d48285f	0.048866626
193	0xba03df0f	-0.0005030492
194	0xbcf0641b	-0.029344609
195	0xbc76aad2	-0.015055375
196	0xbcba17fc	-0.022716515
197	0xbdc333ef	-0.0953139
198	0x3d64f61c	0.05589877
199	0xbc73d330	-0.014881894
200	0xbd85458a	-0.06507404
201	0xbd256815	-0.040382463
202	0xbd743eba	-0.059630133
203	0x3cbca4ad	0.023027742
204	0x3d3616bd	0.04445528
205	0xbc410ff7	-0.0117835915
206	0xbda762ea	-0.08173163
207	0x3b7c7f2f	0.0038527956
208	0x3d0e215f	0.034699794
209	0x3adaf925	0.0016706331
210	0x3b6aefcc	0.0035848496
211	0xbdb600bd	-0.088868596
212	0xbe0bae19	-0.13640632
213	0xbcdf2b64	-0.02724237
214	0xbcf6ef82	-0.030143503
215	0xbb3d867e	-0.0028919275
216	0xbe1e1c71	-0.15440537
217	0xbe198ea7	-0.14995824
218	0xbd08f36f	-0.03343528
219	0x3d8b1447	0.06790977
220	0xbb83f516	-0.0040270193
221	0x3c688e95	0.01419415
222	0xbd09116d	-0.033463884
223	0xbdd219aa	-0.10258801
224	0x3b333365	0.0027343866
225	0xbce6118c	-0.028084539
226	0x3a8352cc	0.0010019182
227	0x3c5ba765	0.013406609
228	0xbd5da2b1	-0.054110233
229	0xbccaf529	-0.024775105
230	0x3c9a2916	0.01881842
231	0x3d322fc4	0.043502584
232	0x3d2ccb35	0.04218598
233	0x3d65117a	0.05592487
234	0x3d655b0b	0.05599503
235	0x3c8ceb41	0.017202022
236	0xbd4b4503	-0.04962636
237	0x3d99a883	0.07502844
238	0xbc2923ef	-0.010323509
239	0x3d2c3942	0.042046793
240	0x3b5ab540	0.0033372194
241	0x3db7f3e2	0.08982064
242	0xbd4758ac	-0.04866855
243	0xbd299874	-0.041405156
244	0xbb8c765a	-0.0042865695
245	0x3c5bd35f	0.013417094
246	0x3d083748	0.033255845
247	0xbd582272	-0.052767225
248	0x3ccb0542	0.02478278
249	0xbd93110c	-0.07180986
250	0x3d78dd7c	0.0607581
251	0xbbe0ad80	-0.0068566203
252	0xbd9c6596	-0.076365635
253	0xbdcb1975	-0.09916965
254	0xbdc80218	-0.09766024
255	0xbc71e862	-0.014764877

classifier.bias f4 [15]
0	0x3db9c03a	0.090698674
1	0xbe6d0bab	-0.23148982
2	0x3d812d87	0.06307512
3	0xbdec3b66	-0.11534767
4	0x3e5cf092	0.21576145
5	0x3dbc2697	0.09187048
6	0x3e66f654	0.22554904
7	0x3d946a5d	0.0724685
8	0x3e7164b3	0.2357357
9	0x3dceeaea	0.101034
10	0x3d2b3899	0.041802023
11	0xbd0b5e1f	-0.034025308
12	0xbe290a15	-0.16507752
13	0xbe960fc2	-0.29308897
14	0xbe991214	-0.29896605

momentum_buffer f4 [15, 1, 9, 9]
0	0xbd50b80c	-0.05095677
1	0xbd0aecf1	-0.03391737
2	0xbd333c18	-0.04375848
3	0xbd317422	-0.043323644
4	0xbd3110c6	-0.043228887
5	0xbd2b1c6e	-0.04177516
6	0xbce829e6	-0.028340291
7	0xbbab8289	-0.005234067
8	0x3c00d12a	0.007862369
9	0xbd08f030	-0.033432186
10	0xbc9716d4	-0.018443502
11	0xbcb36477	-0.021898491
12	0xbc912f06	-0.017722618
13	0xbc7edc65	-0.015555476
14	0xbcd13b26	-0.0255409
15	0xbcb05e27	-0.02152927
16	0xbc343e92	-0.011001246
17	0xbad04f68	-0.0015892806
18	0xbcc45c7c	-0.023969881
19	0xbcb2fd05	-0.021849165
20	0xbc82d776	-0.01597188
21	0xbc43ddf9	-0.011954778
22	0xbc4c0192	-0.012451546
23	0xbcfcc24a	-0.030854363
24	0xbcb25118	-0.021767184
25	0xbc4dcdd0	-0.012561277
26	0xbb172dd0	-0.0023068078
27	0xbc9f8d68	-0.019476607
28	0xbbca56c4	-0.006174894
29	0xbb156a08	-0.0022798795
30	0xbb8db38a	-0.0043243812
31	0xbc216054	-0.009849627
32	0xbcb17102	-0.021660332
33	0xbbf2fe22	-0.007415549
34	0xbbce664c	-0.006298816
35	0xbb5966d8	-0.0033172872
36	0xbc161bec	-0.0091619305
37	0x3bd1b0a8	0.006399233
38	0x3cb30550	0.02185312
39	0x3ca0e5fc	0.019640915
40	0x3c37779f	0.0111979535
41	0xbc658198	-0.014007948
42	0xbc1155d8	-0.008870564
43	0xbc36e460	-0.011162847
44	0x390a15c0	0.00013168808
45	0x3a70a580	0.0009179935
46	0x3c0ac2d4	0.008469302
47	0x3c2e4ac6	0.010637945
48	0x3c13ee16	0.009028932
49	0xba9ce060	-0.0011968724
50	0xbca960b1	-0.020675989
51	0xbc8ef495	-0.01745061
52	0xb85d9c00	-5.2835792e-05
53	0x3c345b06	0.01100803
54	0xbc65defa	-0.014030213
55	0xbc3cbf90	-0.011520281
56	0xbc428d6e	-0.01187454
57	0xbc3da962	-0.011576029
58	0xbc11960a	-0.00888587
59	0xbc91d041	-0.017799499
60	0xbc061994	-0.008184809
61	0x3bf24f38	0.0073946975
62	0x3c4b5aee	0.012411816
63	0xbbd006c8	-0.0063484646
64	0x3aefc340	0.0018292442
65	0x3c0eea98	0.008722924
66	0x3b1533a0	0.0022766367
67	0xbbaed490	-0.005335398
68	0xbc9d5109	-0.01920368
69	0xbc088ef4	-0.008334864
70	0x3c67fc14	0.014159221
71	0x3ccc8c24	0.024969168
72	0xbc752a3c	-0.014963683
73	0xbc0d89b4	-0.008638788
74	0x3ab5e5c0	0.0013877675
75	0x3b4fcf40	0.0031709224
76	0xbc23f328	-0.010006703
77	0xbc9ccb0e	-0.019139793
78	0xbb7c4b20	-0.0038496926
79	0x3ce909a4	0.02844698
80	0x3d2ea327	0.042636063
81	0xbb59aac0	-0.0033213347
82	0xbb4c409a	-0.0031166435
83	0xbb75d1ff	-0.00375092
84	0xbb854d53	-0.0040680557
85	0xbb587f42	-0.0033034836
86	0xbb8e7643	-0.004347594
87	0xbb475908	-0.0030418057
88	0xbb6b1e3c	-0.0035876175
89	0xbb7829fc	-0.0037866822
90	0xbb6cb5c8	-0.0036119092
91	0xbb588930	-0.0033040754
92	0xbb660c52	-0.0035102558
93	0xbb889c06	-0.00416899
94	0xbb5d0431	-0.0033724422
95	0xbb81a3be	-0.003956287
96	0xbb387218	-0.0028144177
97	0xbb4a7188	-0.0030890424
98	0xbb6904d9	-0.0035555868
99	0xbb50cfa0	-0.0031862035
100	0xbb244848	-0.0025067497
101	0xbb18ea86	-0.0023333146
102	0xbb482991	-0.0030542354
103	0xbb0eebf3	-0.0021808117
104	0xbb0d1187	-0.002152534
105	0xbad5b242	-0.0016303735
106	0xbafb584f	-0.0019176098
107	0xbadda4f6	-0.0016910124
108	0xbb7ffdb9	-0.0039061143
109	0xbb2f9760	-0.0026793107
110	0xbad90ce6	-0.001655963
111	0xbaec86f7	-0.0018045594
112	0xbac7e39f	-0.0015250331
113	0xbb07168f	-0.0020612811
114	0xbaae156a	-0.0013281528
115	0xba5fd1a3	-0.0008538013
116	0xb9987ea6	-0.0002908606
117	0xbad56190	-0.0016279686
118	0xba53e902	-0.0008083732
119	0x398bc338	0.00026657595
120	0x38f61a0a	0.00011735044
121	0x37c77f10	2.3781817e-05
122	0xba82732f	-0.000995254
123	0xba73b108	-0.0009296094
124	0xb9727221	-0.00023121435
125	0x3908588c	0.00013002957
126	0xb9bf2093	-0.0003645463
127	0x3a42579b	0.0007413567
128	0x3ad46fda	0.0016207651
129	0x3aade2a4	0.0013266397
130	0x3ac2fef9	0.0014877013
131	0x3a295d77	0.0006460766
132	0x39c08b9e	0.00036725117
133	0x39c6433c	0.00037815596
134	0x3a08476c	0.0005198631
135	0x3a150da0	0.0005685929
136	0x3ad4405a	0.0016193495
137	0x3b25065a	0.0025180788
138	0x3ae5138d	0.001747714
139	0x3af28c2d	0.001850491
140	0x3abf27fc	0.001458406
141	0x3ae4191d	0.0017402504
142	0x3adc36bd	0.0016800981
143	0x3adc19a9	0.0016792315
144	0xba378860	-0.00070012175
145	0x39de8c64	0.0004244774
146	0x3aadefd5	0.0013270328
147	0x3a6d5aea	0.000905438
148	0x3ab6ca86	0.0013945855
149	0x3a9ae54c	0.0011817603
150	0x3b053bc0	0.0020329803
151	0x3b0e622a	0.002172599
152	0x3b4db334	0.003138733
153	0xbb44965e	-0.0029996852
154	0xba808d2e	-0.00098077
155	0xb8e33080	-0.00010833237
156	0xb9ea5a38	-0.00044699176
157	0x39b101b0	0.00033761328
158	0x38cab0a0	9.6650096e-05
159	0x3ac18222	0.0014763514
160	0x3b1cbc9e	0.0023916136
161	0x3b4973b0	0.003073912
162	0xbc7bd5e4	-0.01537082
163	0xbc7769df	-0.015100925
164	0xbc9c23be	-0.019060012
165	0xbc78eff0	-0.015193924
166	0xbc301487	-0.010747082
167	0xbc130b90	-0.008974925
168	0xbb74b84f	-0.0037341302
169	0xbbf9265a	-0.007603449
170	0xbbb7e89f	-0.0056124474
171	0xbc67f731	-0.014158056
172	0xbc6e11e5	-0.014530634
173	0xbc239330	-0.009983823
174	0xbbe505be	-0.00698921
175	0xbab4f9e8	-0.0013807388
176	0xbb503756	-0.0031771264
177	0xbba8192e	-0.005129955
178	0xbc3503a5	-0.011048232
179	0xbbbe6ec3	-0.0058115437
180	0xb9f06a80	-0.00045855716
181	0xbbbc1a06	-0.005740407
182	0xbbb0cb91	-0.0053953608
183	0xbb958be0	-0.0045637935
184	0x3b123af8	0.002231298
185	0xbb50b228	-0.003184447
186	0xbacb2f80	-0.0015501827
187	0xbb8ae02f	-0.0042381505
188	0x3ba1cf52	0.0049380446
189	0x3b9704e4	0.0046087373
190	0xb99f1370	-0.00030341325
191	0x3ba09358	0.0049003772
192	0x3ac25648	0.0014826739
193	0x3befd752	0.0073193694
194	0x3ac5f208	0.0015102038
195	0x3b28b8e1	0.0025744962
196	0xbb01bbdc	-0.001979581
197	0x3bc800a6	0.006103593
198	0x3b61b8c9	0.0034442416
199	0x38cd6200	9.793416e-05
200	0x3beaf5e8	0.0071704276
201	0xba46070c	-0.00075541507
202	0x39142218	0.00014127081
203	0xbbb6a75d	-0.0055741505
204	0x3aaa5057	0.0012993914
205	0xbb371d2c	-0.0027940972
206	0x3ad792a8	0.0016446905
207	0x39900770	0.00027471362
208	0x3b578254	0.0032884078
209	0x3becc80c	0.007225996
210	0x39cbbec8	0.0003886132
211	0xbb95806b	-0.0045624278
212	0xbc05fa4c	-0.008177351
213	0xbb678d36	-0.003533197
214	0xbb9ae072	-0.004726463
215	0x3be1d047	0.0068912837
216	0xb59a6800	-1.1504162e-06
217	0xbab1e7a4	-0.0013573063
218	0xb99d7a38	-0.00030036434
219	0xbb97bf2e	-0.0046309447
220	0xbb891be0	-0.004184231
221	0xbbf50d25	-0.0074783736
222	0xbbde2bc2	-0.0067801187
223	0xbbcf1871	-0.0063200523
224	0x3b8cabb0	0.0042929277
225	0xbc12b81a	-0.008955026
226	0xbc0e41ab	-0.008682649
227	0xbbe9232c	-0.0071147885
228	0xbc40e4cd	-0.0117733
229	0xbc6dbfa6	-0.014511025
230	0xbc871785	-0.016490707
231	0xbc8a6a81	-0.016896488
232	0xbc7d6314	-0.015465517
233	0xb93de73c	-0.00018110586
234	0xbce1d5ea	-0.027567822
235	0xbcd84691	-0.026400836
236	0xbcb8f6a8	-0.022578552
237	0xbcd61e9d	-0.026137644
238	0xbcdf52e3	-0.027261203
239	0xbced7dbc	-0.028990619
240	0xbccc0e5c	-0.02490919
241	0xbcbe952b	-0.023264488
242	0xbc05c470	-0.00816451
243	0xbde80a5d	-0.11330102
244	0xbdd68fde	-0.10476659
245	0xbdcd3fcb	-0.10021933
246	0xbdcf9b13	-0.10137
247	0xbd88f791	-0.066878445
248	0xbd975cc0	-0.073907375
249	0xbd887327	-0.066625886
250	0xbcf2cbde	-0.029638227
251	0xbc06fd66	-0.008239126
252	0xbdfecefa	-0.124418214
253	0xbdafc7f1	-0.08583058
254	0xbdcd0e15	-0.100124516
255	0xbdfd67c9	-0.12373311

momentum_buffer f4 [15]
0	0xbdefed70	-0.117152095
1	0xbda1c02a	-0.078979805
2	0x3dd2b6a8	0.10288745
3	0xbed8ba69	-0.4232972
4	0xbe1bb3cb	-0.15205304
5	0x3df0ff64	0.11767462
6	0xbc9dc44a	-0.019258637
7	0xbd9a8143	-0.07544186
8	0x3d89190e	0.06694232
9	0xbe4ed7e5	-0.20199545
10	0x3e145213	0.14484434
11	0xbd90877c	-0.070570916
12	0x3ef4adce	0.47788852
13	0x3dcd813e	0.100344166
14	0x3b809838	0.003924396

momentum_buffer f4 [25, 15, 5, 5]
0	0x3d93b075	0.07211391
1	0x3d68ee1f	0.056867715
2	0x3d44c176	0.04803606
3	0x3d330698	0.04370746
4	0x3d2a8014	0.04162605
5	0x3c676864	0.01412401
6	0x3b415423	0.0029499612
7	0xba873e19	-0.0010318189
8	0xba14fac7	-0.00056831207
9	0xb99c5840	-0.0002982039
10	0xbb9bc1d2	-0.00475333
11	0xbc5d4fb0	-0.0135077685
12	0xbc65fd88	-0.014037497
13	0xbc4d9c0c	-0.0125494115
14	0xbc07f0bd	-0.008297143
15	0xbb9834db	-0.0046449727
16	0xbbc4a904	-0.0060015935
17	0xbb9add11	-0.00472606
18	0xbb22b916	-0.0024829558
19	0xbadb51b4	-0.0016732723
20	0xbc38e102	-0.011284115
21	0xbc32c8e8	-0.010912158
22	0xbc2e4f25	-0.010638987
23	0xbbf9db2e	-0.007625005
24	0xbbd815a3	-0.006594376
25	0xbcd9318c	-0.026512884
26	0xbcd64bf6	-0.026159268
27	0xbcc08471	-0.023500653
28	0xbcad7b11	-0.021176847
29	0xbcad7d54	-0.021177925
30	0xbc10a5af	-0.008828565
31	0xbc235424	-0.009968791
32	0xbc056a6b	-0.008143048
33	0xbc06b52a	-0.008221904
34	0xbc03fec3	-0.008056345
35	0xba04a9f4	-0.00050607254
36	0xbac4db36	-0.0015018943
37	0xba317b20	-0.0006770361
38	0xb99c86a0	-0.00029854942
39	0x3aaa4148	0.0012989426
40	0x3b984564	0.004646944
41	0x3b97067a	0.0046089264
42	0x3bb77b5c	0.0055994224
43	0x3bcf0d68	0.006318737
44	0x3c0508c2	0.008119764
45	0x3bcce2b7	0.0062526125
46	0x3be958a4	0.0071211625
47	0x3bff2476	0.007786329
48	0x3c11eedc	0.008907046
49	0x3c30af4d	0.010783982
50	0x3c05fbf3	0.008177745
51	0x3bc2b36f	0.0059418003
52	0x3b8d9c60	0.00432162
53	0x3bda8eec	0.0066698696
54	0x3ba08eb8	0.004899826
55	0xbaf74dec	-0.0018867827
56	0xbbe51997	-0.006991576
57	0xbc0ab10b	-0.008465062
58	0xbc087046	-0.008327549
59	0xbbf7fc88	-0.007567946
60	0xbba9a2de	-0.005176886
61	0xbbcd264a	-0.006260668
62	0xbbd68805	-0.0065469765
63	0xbbcee453	-0.0063138395
64	0xbbdb9977	-0.006701644
65	0xbbed6e5c	-0.007245822
66	0xbc026eeb	-0.007961015
67	0xbbfc42a4	-0.007698374
68	0xbbffea68	-0.007809926
69	0xbc09eaa1	-0.008417756
70	0xbb0bb304	-0.0021316418
71	0xbb9057de	-0.004405006
72	0xbbb7cb13	-0.005608925
73	0xbb90e76d	-0.0044221194
74	0xbb95f955	-0.004576842
75	0xbb83bf8e	-0.004020638
76	0x3c963dc3	0.018339997
77	0x3cc289e8	0.0237474
78	0x3c9db40e	0.019250896
79	0x3ca27a9d	0.019833857
80	0x3cc169c4	0.023610003
81	0x3ccffa3d	0.025387878
82	0x3ca5c52e	0.020235624
83	0x3c98c2ae	0.018647518
84	0x3c051e4a	0.008124897
85	0x3c59dab8	0.0132967755
86	0x3c3081e9	0.0107731605
87	0x3b94b456	0.0045380993
88	0x3bbdf775	0.0057973214
89	0x3b873534	0.0041262154
90	0x3c892a54	0.016743816
91	0x3c96e2b6	0.018418651
92	0x3c490304	0.012268785
93	0x3c8cedd2	0.017203245
94	0x3c974df3	0.018469786
95	0x3d028bf6	0.03187176
96	0x3cd52c96	0.026022237
97	0x3cd09227	0.025460316
98	0x3d26aca8	0.040692
99	0x3d37b5d2	0.04485113
100	0xbac18b5e	-0.0014766266
101	0xbb73859e	-0.00371585
102	0xbbdaffdc	-0.006683333
103	0xbbe55952	-0.006999173
104	0xbbe6b908	-0.0070411004
105	0xba954ff4	-0.0011391626
106	0xbb39689a	-0.0028291107
107	0xbba850b1	-0.0051365723
108	0xbb6182b9	-0.0034410192
109	0xbabb314c	-0.0014281659
110	0x3c2393c1	0.009983958
111	0x3c0f0e3a	0.008731419
112	0x3bec710a	0.0072156237
113	0x3c10f756	0.008848032
114	0x3c6cbc6a	0.014449218
115	0x3c5fc0a9	0.013656774
116	0x3c5f43b2	0.01362698
117	0x3c773c40	0.015090048
118	0x3c925c14	0.017866172
119	0x3cc87b24	0.02447278
120	0x3c3fb4fc	0.011700865
121	0x3c5be22c	0.013420623
122	0x3c62c08e	0.013839854
123	0x3c73853c	0.0148633085
124	0x3c98c652	0.018649254
125	0x3ca42eca	0.020041842
126	0x3c006a0a	0.007837782
127	0xbaf29284	-0.00185068
128	0xbc05a73a	-0.008157546
129	0xbcd08a45	-0.025456557
130	0xbb0ddfd2	-0.00216483
131	0xbc5764e0	-0.013146609
132	0xbc8eb9fe	-0.017422672
133	0xbcc8a0fa	-0.024490822
134	0xbd0ad405	-0.033893604
135	0xbc745283	-0.01491225
136	0xbc44deea	-0.0120160375
137	0xbc92d650	-0.017924458
138	0xbc81da79	-0.015851246
139	0xbc2f263e	-0.01069027
140	0xbc02ad61	-0.007975907
141	0xbba404b4	-0.0050054435
142	0xbbe84cd2	-0.007089236
143	0xb955d300	-0.00020391867
144	0x3b462526	0.0030234545
145	0x3ba25803	0.0049543395
146	0x3c4f21b0	0.012642309
147	0x3c506bd2	0.012721019
148	0x3c0f0b40	0.00873071
149	0x3bf86332	0.0075801844
150	0xbd33e1cd	-0.043916512
151	0xbd3741f1	-0.04474062
152	0xbca86934	-0.020557977
153	0x3b0548e0	0.0020337626
154	0x3bd8531c	0.0066017043
155	0xbcf73362	-0.030175868
156	0xbc8eefb9	-0.017448293
157	0x3b663bbe	0.0035130824
158	0x3c5404ea	0.012940625
159	0x3c895064	0.016761966
160	0xbd0b5172	-0.03401322
161	0xbcd17a76	-0.02557109
162	0xbbb77f8c	-0.0055999216
163	0xbb469e70	-0.0030306838
164	0x3b28cf16	0.0025758198
165	0xbc12e138	-0.008964829
166	0xbba7d345	-0.005121621
167	0x3b425708	0.0029653925
168	0x3afc36e8	0.0019242438
169	0xbb03c588	-0.0020106751
170	0xbade9510	-0.001698168
171	0x39583200	0.00020617992
172	0x3c41fed2	0.011840539
173	0x3b95c28b	0.0045703105
174	0x3c7de642	0.015496792
175	0x3c98a996	0.018635552
176	0x3c8a0783	0.016849285
177	0x3c80d518	0.015726611
178	0x3c7a9e9c	0.0152966045
179	0x3c62f1e9	0.013851621
180	0x3c1395f5	0.0090079205
181	0x3c080b82	0.008303525
182	0x3bef5dcb	0.007304882
183	0x3be3b7b6	0.0069493903
184	0x3bb80af9	0.0056165424
185	0xbaa75f4c	-0.001276949
186	0xbabb7154	-0.0014300742
187	0xbac7b3be	-0.0015236062
188	0xbab7743e	-0.0013996435
189	0xba603b28	-0.0008553737
190	0xbb100174	-0.0021973522
191	0xbb1737b0	-0.0023073964
192	0xbb245339	-0.0025074019
193	0xbb28ecbc	-0.002577587
194	0xbb28f0fd	-0.0025778406
195	0xbb12ba82	-0.0022389
196	0xbb213612	-0.0024598879
197	0xbb1f82b6	-0.0024339384
198	0xbb13f3b0	-0.002257567
199	0xbb22d462	-0.0024845828
200	0x3d103856	0.035209976
201	0x3cf96dd8	0.030447885
202	0x3cd64c63	0.02615947
203	0x3cc8daa8	0.024518326
204	0x3cbcc684	0.023043878
205	0x3c6f23f7	0.014595977
206	0x3c29d0c6	0.010364717
207	0x3c0752d7	0.008259497
208	0x3be87554	0.0070940647
209	0x3bd19c05	0.006396773
210	0xbb0bd500	-0.0021336675
211	0xbbbb596f	-0.0057174484
212	0xbbc17826	-0.0059042154
213	0xbbc9cf8c	-0.0061587747
214	0xbbc09a0e	-0.0058777397
215	0xbbb0e8cc	-0.0053988453
216	0xbbba9275	-0.0056937286
217	0xbbbcfee6	-0.005767691
218	0xbbc028b0	-0.0058642253
219	0xbbbd53d5	-0.005777816
220	0xbc13f40f	-0.009030356
221	0xbc128b18	-0.008944295
222	0xbc101988	-0.00879515
223	0xbc0b46e5	-0.008500789
224	0xbc063eeb	-0.008193712
225	0xbc38cb92	-0.011279004
226	0xbc46361c	-0.012097862
227	0xbc605e3a	-0.01369434
228	0xbc7dccc3	-0.0154907135
229	0xbc83b892	-0.01607922
230	0xbbed70b2	-0.0072461003
231	0xbc141cbe	-0.009040056
232	0xbc161391	-0.009159938
233	0xbc0c2ba4	-0.008555327
234	0xbbcadcdb	-0.006190879
235	0x3a9ca14c	0.0011949926
236	0x3a61c4a8	0.0008612373
237	0x3a59a9e0	0.00083032064
238	0x3b14c440	0.0022699982
239	0x3be5dea4	0.007015066
240	0x3c37dac0	0.011221588
241	0x3c41d202	0.011829855
242	0x3c4c9552	0.012486773
243	0x3c72f912	0.014829891
244	0x3c9e5d48	0.01933159
245	0x3c3a8af4	0.011385668
246	0x3c3b63fc	0.011437412
247	0x3c51e32e	0.0128105115
248	0x3c704a87	0.014666206
249	0x3c939f69	0.018020349
250	0x3ac9ecbc	0.0015405635
251	0x3a44a4a0	0.00075013377
252	0x3a516fe8	0.00079893926
253	0x399143c0	0.00027707033
254	0xba0fff54	-0.0005493064
255	0xbb82c381	-0.003990591

momentum_buffer f4 [25]
0	0x3ec5ce48	0.38633943
1	0x3dd86c0c	0.10567483
2	0xbea5aa93	-0.323567
3	0xbdead3da	-0.11466189
4	0xbed023ba	-0.40652257
5	0x3e43d0a4	0.19122559
6	0xbe6aa426	-0.2291418
7	0xbedabfd1	-0.4272447
8	0x3e7a47ef	0.24441503
9	0x3d665205	0.056230564
10	0xbeb69abf	-0.35664937
11	0xbd387e11	-0.0450421
12	0x3e88d642	0.26725966
13	0x3b41c040	0.0029564053
14	0x3dafce99	0.08584327
15	0xbeb45eaf	-0.35228488
16	0x3dc9da67	0.0985611
17	0x3f1ada8f	0.60489744
18	0x3e89613e	0.26832002
19	0xbe2c1500	-0.16804886
20	0xbb8423c0	-0.004032582
21	0x3e151c1e	0.14561507
22	0xbd63a95a	-0.055581428
23	0xbe6c5c57	-0.230821
24	0xbed87a96	-0.42281026

momentum_buffer f4 [15]
0	0x3db34e7a	0.087552026
1	0x3d8e8e84	0.069607764
2	0x3cf8a9e6	0.030354451
3	0xbdc4ef58	-0.09615964
4	0x3dac0f4c	0.08401355
5	0x3dd208f2	0.102556124
6	0x3c9e4b12	0.019322906
7	0xba4b26d0	-0.0007749619
8	0x3dc801e0	0.09765983
9	0x3e08559c	0.13313907
10	0x3dcb8b4d	0.09938679
11	0x3dde6a14	0.108600765
12	0xbc814746	-0.015781056
13	0x3d1dc34a	0.03851632
14	0xbb7dff7c	-0.0038757017

momentum_buffer f4 [15, 25, 11, 11]
0	0x3b2910d3	0.0025797382
1	0x3d19b868	0.03752938
2	0xbc03824b	-0.00802667
3	0xbd2f9a27	-0.04287162
4	0xba17d357	-0.0005791685
5	0xbca82c18	-0.020528838
6	0xbd1bab47	-0.03800514
7	0x3c815a97	0.015790267
8	0xbbd064a3	-0.006359653
9	0x3b7be694	0.0038436996
10	0xbcf98aab	-0.03046163
11	0xbbb12051	-0.0054054637
12	0xbc313dd8	-0.010817967
13	0xbd096cf1	-0.03355116
14	0xbd008407	-0.03137591
15	0xbca20631	-0.019778343
16	0xbd21752f	-0.039418396
17	0xbcd92b8d	-0.026510024
18	0xbd2cca2e	-0.042185
19	0xbcae1dfc	-0.021254532
20	0xbd0fa038	-0.035064906
21	0xbcec264b	-0.028826853
22	0x3b0703b1	0.0020601565
23	0x3c3858ec	0.011251669
24	0x3c647e8b	0.013946186
25	0xbc9cb9fd	-0.019131655
26	0xbbadac1f	-0.0053000594
27	0x3c607b18	0.013701223
28	0xbc769621	-0.015050442
29	0xbbf22db4	-0.007390702
30	0xbc2369e4	-0.009973977
31	0x3be202b3	0.0068972944
32	0xbb37cf9b	-0.0028047326
33	0xbc1cbbeb	-0.0095662875
34	0xbbbfecea	-0.0058571
35	0xbb240322	-0.0025026281
36	0x3baa8649	0.0052039963
37	0x3b48c260	0.0030633435
38	0x3c6e2552	0.014535265
39	0xbb75dec0	-0.0037516803
40	0x3c991511	0.018686803
41	0x3c014329	0.007889547
42	0x3ca9d77c	0.020732634
43	0xba840f32	-0.0010075329
44	0x3c67671f	0.014123707
45	0xba8d99bf	-0.0010803266
46	0xbc0dc8d0	-0.008653834
47	0x3c28bb88	0.010298617
48	0xbb3d6764	-0.0028900737
49	0xbb7a3ef8	-0.0038184505
50	0xbb7298cc	-0.0037017344
51	0xba4bb600	-0.00077709556
52	0xbd11084f	-0.035408314
53	0xbc88f6b2	-0.016719196
54	0xbc9a7c0d	-0.01885798
55	0xbc2cb25c	-0.010540571
56	0x3c98759b	0.018610766
57	0x3c802466	0.015642356
58	0xba8a1eaa	-0.0010537703
59	0x3bc93108	0.006139878
60	0x3c348fe4	0.011020634
61	0x3a56ba0d	0.0008191176
62	0xbae91610	-0.0017783064
63	0xbc87dc78	-0.01658462
64	0xbbc3b092	-0.0059719766
65	0xbc95a578	-0.018267378
66	0xbd2a91c2	-0.04164291
67	0xbc4a4e90	-0.012347832
68	0xbc9a67a3	-0.018848246
69	0xbcee63fe	-0.029100414
70	0xbcccbd2d	-0.02499255
71	0x3a9bfd0a	0.0011900973
72	0x3c8ef78e	0.017452028
73	0xbd754632	-0.059881397
74	0x3bcf5ed6	0.006328444
75	0xbb804cd3	-0.003915408
76	0xbd78569c	-0.060629472
77	0x3bb2f944	0.0054618437
78	0xbbd6a68a	-0.0065506147
79	0x3b0681b3	0.0020524084
80	0xbd733904	-0.059380546
81	0xbc7379a1	-0.014860542
82	0x3b4770b8	0.0030432176
83	0x3cb1dff3	0.021713233
84	0x3d1bd49c	0.038044557
85	0xbc718908	-0.014742143
86	0xbc4ec409	-0.012619981
87	0xbd0c0c49	-0.034191404
88	0xbd6ae454	-0.057346657
89	0xbcb73e44	-0.022368558
90	0x3d15f83a	0.03661368
91	0xbc86d9bb	-0.016461244
92	0x3d2fdd80	0.04293585
93	0xbd807693	-0.06272616
94	0xbc82bfde	-0.01596063
95	0xbd076bb6	-0.033061706
96	0xbd1d635b	-0.03842483
97	0xbc93cb9f	-0.01804143
98	0x3c4d6214	0.012535591
99	0xbd30ba34	-0.043146327
100	0x3d54f976	0.051995717
101	0x3d16c864	0.0368122
102	0xbb57bcfc	-0.003291904
103	0x3baa45ac	0.005196294
104	0xbda72466	-0.08161239
105	0xbbf82560	-0.007572815
106	0xbd31782f	-0.043327507
107	0x3c7f7fb3	0.015594411
108	0x3d17fa78	0.0371041
109	0xbe1f2422	-0.15541127
110	0xbda9b43c	-0.0828633
111	0xbd5b041e	-0.053470723
112	0xbd630736	-0.0554268
113	0x3d592a9b	0.053019147
114	0xbb7fd6cc	-0.003903794
115	0xbd61e4ec	-0.055149958
116	0x3cf36c96	0.029714864
117	0xbdb2d891	-0.08732713
118	0xbd9236d3	-0.07139363
119	0xbc806a37	-0.015675647
120	0x3d93de9e	0.07220195
121	0xbcaf8ff1	-0.021430941
122	0x3c3dfb30	0.011595532
123	0x3d10e002	0.03536988
124	0x3a9fbe14	0.0012187385
125	0x3c0bdcd1	0.008536533
126	0xbd350b7a	-0.044200398
127	0x3c9ee630	0.019396871
128	0xbd07eafc	-0.033183083
129	0xbc67c301	-0.014145614
130	0xbc93aa3d	-0.018025512
131	0xbccc3cf5	-0.02493141
132	0x3c2fe68e	0.010736121
133	0x3c81fbc7	0.015867127
134	0x3ca34a2e	0.019932833
135	0x39aec9c0	0.00033338182
136	0x3c3a4c4e	0.0113707315
137	0xbd6ab11c	-0.05729781
138	0x3ca74c64	0.020422168
139	0xbd26ce4c	-0.040724084
140	0xbd0d8f96	-0.034560762
141	0xbcddec21	-0.027090134
142	0x3c0da95d	0.008646336
143	0xbd2b0884	-0.041756168
144	0xbcc40879	-0.023929821
145	0x3cd4b7af	0.025966493
146	0xbcf9697a	-0.030445803
147	0x3c2188fc	0.00985932
148	0x3d340c95	0.04395731
149	0x3d289402	0.041156776
150	0xbcc595d4	-0.024119295
151	0xbabb206f	-0.0014276634
152	0xbd232226	-0.03982749
153	0x3ccda07d	0.02510094
154	0xbc3eefd7	-0.011653862
155	0xbb8405dc	-0.004029019
156	0xbb888690	-0.0041664317
157	0x3d4e9eb2	0.050444312
158	0x3b54f190	0.0032492615
159	0x3b58540a	0.0033009076
160	0x3a75de5c	0.00093791424
161	0x3ca32c4a	0.01991858
162	0x3d0e45c7	0.034734514
163	0xbd6aa209	-0.057283435
164	0xbce9f35b	-0.028558424
165	0x3c3062f8	0.0107657835
166	0x3c2c1793	0.010503667
167	0x3d2ba517	0.04190549
168	0x3bb75e49	0.0055959565
169	0x3d615fb2	0.055022903
170	0x3cd2e0ca	0.025741953
171	0xbcd43462	-0.025903884
172	0x3d357ccd	0.044308472
173	0x3cf48905	0.029850492
174	0x3b7d5cc0	0.003866002
175	0xbc7c23e0	-0.015389413
176	0x3d03778d	0.032096434
177	0x3d7d1047	0.0617831
178	0xbcb68983	-0.022282368
179	0xbd20d869	-0.039268885
180	0x3d329bf3	0.043605756
181	0x3d0e568c	0.034750506
182	0x3c842644	0.016131528
183	0xbcb8485e	-0.022495445
184	0xbd156ca5	-0.036480565
185	0xbc052e07	-0.00812865
186	0x3d620936	0.055184565
187	0xbd646701	-0.055762295
188	0xbd512904	-0.051064506
189	0xbd43aed8	-0.047774166
190	0xbc490fff	-0.01227188
191	0x3cbe59f2	0.023236249
192	0x3d13ef23	0.03611673
193	0xbb43d800	-0.0029883385
194	0xbcf007cd	-0.029300595
195	0xbd25ec85	-0.040508766
196	0x3afb16e5	0.0019156603
197	0x3c9c3661	0.019068899
198	0xbd232467	-0.039829638
199	0xbd75c447	-0.060001638
200	0xbd2aca76	-0.041696988
201	0x3c2b97a2	0.010473164
202	0x3c43dfa6	0.011955177
203	0xbbe129eb	-0.006871452
204	0xbb9c5928	-0.0047713704
205	0xbcb109be	-0.02161109
206	0xbc8fe208	-0.017563835
207	0x3ceedbf8	0.029157624
208	0x3ce0ad80	0.027426481
209	0x3ca280ab	0.019836744
210	0x3be3adc0	0.006948203
211	0xbc8f6d42	-0.017508153
212	0xbc429a5f	-0.011877625
213	0x3d03a169	0.032136355
214	0xbcc28fd5	-0.023750225
215	0xbd49195a	-0.049096443
216	0xbd5b74dc	-0.053578243
217	0xbcd10bd0	-0.025518328
218	0x3c3486b2	0.011018442
219	0xbbf95e56	-0.0076101227
220	0xbb9e79f5	-0.0048363158
221	0xbc1f991c	-0.009741094
222	0xbc3509f6	-0.011049738
223	0xbc39435c	-0.011307564
224	0x3b806a5e	0.00391893
225	0xbc9e49ca	-0.019322295
226	0xbd436a75	-0.047708947
227	0xbda946b3	-0.08265438
228	0xbc4b98a9	-0.012426534
229	0x3d719cdc	0.058987483
230	0xbb3bf7c4	-0.0028681615
231	0x3cdd21dc	0.026993684
232	0xbd66483a	-0.056221224
233	0x3b5f7d3f	0.0034101752
234	0x3c45d188	0.012073882
235	0x3c32df62	0.010917516
236	0xbc12e211	-0.008965031
237	0xbc730eb2	-0.014835047
238	0xbca38594	-0.019961156
239	0xbcfac416	-0.03061108
240	0x3d04f38e	0.032458834
241	0x3c84523b	0.016152492
242	0x3bb78b06	0.0056012897
243	0x3ce54956	0.02798907
244	0x3ce460f7	0.027878268
245	0x3cfddd9b	0.030989459
246	0xbb45e5a2	-0.0030196686
247	0xbce60c94	-0.02808217
248	0xbc81d484	-0.015848406
249	0x3c1fe8b4	0.009760071
250	0x3c8b985f	0.01704043
251	0x3b68df22	0.0035533388
252	0xbb97acd8	-0.004628759
253	0x3c2ae6f0	0.010431036
254	0x3ca94ebd	0.020667428
255	0xbc15f5f5	-0.009152879

momentum_buffer f4 [25]
0	0xbe83ee4c	-0.25767744
1	0x3dbcbecc	0.09216079
2	0x3f28d92e	0.6595639
3	0x3e06ef83	0.13177304
4	0x3e3d97fa	0.18515006
5	0xb8a60400	-7.916242e-05
6	0x3ebd32bd	0.36952773
7	0xbf118be8	-0.56854105
8	0x3ec54bb4	0.3853432
9	0xbd177abc	-0.036982283
10	0xbe86c83a	-0.26324636
11	0xbe2d9b9a	-0.16953889
12	0xbe569e32	-0.20958784
13	0x3e67baff	0.22629927
14	0x3dd07044	0.10177663
15	0xbeb0f2a2	-0.34560114
16	0x3e5bef9d	0.21478124
17	0xbe20f4f6	-0.15718445
18	0x3e7089a0	0.2349
19	0x3e637247	0.22211562
20	0x3dcdd63e	0.10050629
21	0x3f1ac6e9	0.6045976
22	0xbe087179	-0.13324536
23	0xbf307a9b	-0.6893708
24	0xbe2b50e2	-0.16730073

momentum_buffer f4 [15]
0	0x3c7c4cb2	0.015399145
1	0xbc675b54	-0.014120895
2	0x3cc26864	0.023731418
3	0x3cd9fcac	0.026609741
4	0x3d09a124	0.03360094
5	0xbd04f45e	-0.03245961
6	0xbd7ba643	-0.061437856
7	0x3c01ac51	0.007914619
8	0x3c9dc86b	0.019260606
9	0xbc0bb0a4	-0.008526001
10	0xbd97301f	-0.07382225
11	0x3d08694a	0.033303536
12	0x3b7b05b0	0.003830295
13	0x3c940c22	0.018072192
14	0x3c0d9f8c	0.008643996
