Deep Learning/code/logs/part1/checkpoint.pth.tar (torch_old, 452377 bytes, 20 tensors)

features.0.weight f4 [15, 1, 9, 9]
00000000: ecf3 6f3c 1284 913d c0b0 52bc 9b0f 1038
00000010: a406 e33c 9806 2b3d 390d 2c3d a23d 843d
00000020: 4c34 983d 8add e93c 5ab6 783d 8e5c a03c
00000030: 9202 56bc b7d7 dfbc 07b9 273c 5b26 09bd
00000040: d7a4 4abd cca8 f5bb 0798 9bbc 66b0 a13d
00000050: aca2 a43d f173 273d da36 0e3d 6281 d83c
00000060: ccbf 2f3c 0e16 443c e2e2 003d 3eb7 2b3d
00000070: 0f50 e93d f920 203e 909b 433e e1e7 e43d
00000080: 67db 793d 7425 963d 413b 5c3d 7e75 793c
00000090: 07a2 fc3d 7fab 613e 2a54 873e b187 683e
000000a0: 9484 cf3d 62b2 bb3c 84b5 4b3d b410 02bc
000000b0: a4e7 783d 7ccf 093d 19ae 103e 88d7 483e
000000c0: 4484 c53d 5419 0fbd b49e fcbd bd8a 8dbd
000000d0: 2012 9bbd b89a 803c b82b b63d 007b df3d
000000e0: ad5b d23d 64bd ffbc 8c97 83bd d00b f1bd
000000f0: 4cce 99bd c6ce 04bd c4c1 f63c 851b 473d
00000100: 8c36 de3c 8718 a1bc 40f5 94bd d36e b1bd
00000110: 2840 aebd cc04 55bd 1501 ae3b 3ea0 afbc
00000120: 5130 e73c a45a 27bc 7010 d6bd d2a6 02be
00000130: ffd8 01be fced 2abe 496b 29be 36e1 84bd
00000140: 1b4a 90bd 4e53 06be 7ebc 08be 31d3 00be
00000150: 8a8a f3bd 07d3 8ebd 18ad b7bd ee35 a5bd
00000160: 7355 fbbd 00a8 e5bd 31a2 21be 6ee3 f6bd
00000170: df78 13be 3c2e c0bd 3350 cebd 798d 12be
00000180: 757d 0abe 6388 32be 535d 15be 5e26 32be
00000190: 6bfa 10be 28a0 3abe 1dfa fbbd 082b bdbd
000001a0: 17fe b3bd 74b7 1cbe f752 45be 3b45 1cbe
000001b0: d1ce 37be 64a1 13be 8abb 14be 3b8e d6bd
000001c0: 790a 9dbd 3d29 a8bd 6ed2 e5bd 9d3b efbd
000001d0: f619 c7bd b9c9 4bbe a189 3ebe b0a1 39be
000001e0: c5ca febd f6af f5bd 69ce b1bd f7c4 eabd
000001f0: 2ec5 f2bd 0cb7 91bd 7479 66be a928 5dbe
00000200: 1015 68be 9e00 53be 0dcb 08be a16c f1bd
00000210: 5317 03be 44a0 28be 4348 19be 2513 2ebe
00000220: 0daf 46be c2df 3fbe 02c9 41be 2540 1cbe
00000230: 635b 14be 4da5 24be 6459 35be c2f4 2fbe
00000240: 756f c6bd 37f6 e1bd 7c88 aebd 49ec 6bbd
00000250: ddf1 fdbc 66cd f9bd 2b92 20be 12b9 19be
00000260: 64c4 fdbd 8e29 e0bd 75b5 83bd 9dbd 8abd
00000270: 91d7 eabc 9fc5 7dbc 4132 e9bd 78be 0abe
00000280: 9761 06be 1eb3 11be 1d45 31bd bc12 07bc
00000290: c7df 513c 075d 03bc a4b3 0d3b 1813 0f3c
000002a0: 199a 933c 6618 c4bc be33 30bd baf7 f3bc
000002b0: b570 393d 45ef 713d 60b1 243d 0a06 693c
000002c0: cb05 d63b d5ff 4c3c 585e 23bd 3f82 81bd
000002d0: 91fd b93c df97 463d 2da7 8f3d 747e 403d
000002e0: 57a5 5d3c 15de d2bc 0561 f4bb e4d0 09bd
000002f0: 2b55 fabc 6908 493d 33e1 6a3d cef5 c53d
00000300: 2914 9c3d aa79 863d 8349 f93b ffca 47bd
00000310: 44e1 3cbd 4c15 a9bc 9294 3c3d dedf f13d
00000320: 44fd cc3d 66c5 c13d b4d5 963d a823 6b3b
00000330: 42d0 fdbc b79b 20bd 799d 7bbc 8ff7 5b3d
00000340: e1a8 c43d 2ad2 e43d df42 ef3d 4ccc 863d
00000350: 6272 303c 0e03 83bc 6c03 a4bc 2aa0 85bc
00000360: 1a4d b83d 4465 e83d e71d fd3d 68d3 ab3d
00000370: fba2 363d a443 033d 3cf0 7f3c 9da1 d9bc
00000380: 6457 cbbb 0a41 7b3d ac22 983d b80e a13d
00000390: 961e 613d 3d52 223c c3d2 ddbc 56f1 a43c
000003a0: f05d a3bc e036 f23b dd25 9a3c 5b86 033d
000003b0: 8b09 163d 40be 59bc ac45 87bd ec8f 1fbd
000003c0: abad 2abc 852f f33a 9294 ac3b 0787 1e3e
000003d0: e7d4 0bbe 455a 653c 3ca9 f63e b7cc abbd
000003e0: 0f82 c7be 8d4c 1abe 80f9 083e 9dfe db3d
000003f0: a567 2e3e 4d99 c7bd 86a5 b23c aa43 0d3f
0.014645558 0.071052685 -0.012859523 3.434681e-05 0.027713127 0.041754335 0.042004798 0.06457068
0.0743185 0.02854802 0.06072078 0.019575384 -0.013062136 -0.02732454 0.010236985 -0.033483844
-0.04947361 -0.007496929 -0.01899339 0.078949735 0.0803884 0.040882055 0.03472028 0.026428882
0.01072688 0.011968149 0.031466372 0.0419228 0.11392223 0.15637578 0.19102311 0.1117704
0.061000254 0.07331362 0.053767446 0.015225766 0.12335592 0.22038077 0.264314 0.22708012
0.10132709 0.022912208 0.049733654 -0.007938553 0.060767785 0.03364514 0.14128913 0.19613469
0.09644368 -0.034936264 -0.12334958 -0.06911228 -0.075718164 0.015698776 0.088950574 0.10912132
0.10271392 -0.031218238 -0.0642539 -0.11769831 -0.07510051 -0.032423757 0.030121692 0.04861023
0.02712562 -0.019665016 -0.0727334 -0.08663716 -0.085083306 -0.052006528 0.0053101876 -0.021438714
0.028221281 -0.0102144815 -0.10452354 -0.1275895 -0.12680434 -0.16692346 -0.16544832 -0.06488268
-0.070453845 -0.13117716 -0.13353154 -0.12580563 -0.118916586 -0.06973844 -0.08968562 -0.08066927
-0.122721575 -0.11213684 -0.15784527 -0.120550975 -0.14401577 -0.093838185 -0.100738905 -0.1431178
-0.1352442 -0.1743484 -0.14586382 -0.17397448 -0.14158027 -0.18225157 -0.12303565 -0.09236723
-0.08788698 -0.15304357 -0.1926993 -0.15260784 -0.17949988 -0.14417034 -0.14524665 -0.10476347
-0.07668013 -0.082109906 -0.11221777 -0.11681292 -0.097217485 -0.1990117 -0.18607189 -0.18128085
-0.12441019 -0.119964525 -0.08681948 -0.11463349 -0.11854015 -0.071149915 -0.22507268 -0.21597542
-0.22664285 -0.20605704 -0.13358708 -0.117882974 -0.12801866 -0.16467386 -0.14968972 -0.1699949
-0.19402714 -0.187377 -0.18924335 -0.15258844 -0.14487986 -0.16078682 -0.17709881 -0.17183211
-0.096892275 -0.1103329 -0.08522126 -0.057598386 -0.030999118 -0.1219738 -0.15680759 -0.15012005
-0.12390974 -0.10945426 -0.064310946 -0.06774447 -0.028667243 -0.015489011 -0.11386538 -0.1354922
-0.13123165 -0.14228484 -0.043278802 -0.008244213 0.0128097 -0.008017785 0.0021621967 0.00873258
0.018017815 -0.023937415 -0.043018095 -0.029781211 0.0452735 0.059066076 0.04020822 0.014222631
0.0065314523 0.012512167 -0.039884895 -0.063236706 0.022703918 0.04848468 0.07014308 0.046995595
0.01352819 -0.025740663 -0.0074578547 -0.03364648 -0.03055819 0.049080286 0.057343673 0.09666024
0.07621033 0.06566174 0.0076076402 -0.048777577 -0.046113268 -0.020640038 0.046040125 0.118102774
0.10009244 0.09461479 0.073649794 0.0035879407 -0.030983094 -0.039211 -0.015357369 0.053702887
0.096025236 0.11172898 0.116826765 0.06581935 0.0107694585 -0.015992668 -0.020021163 -0.016311724
0.08999081 0.1134744 0.12359219 0.08389932 0.044589024 0.03204693 0.015621241 -0.026566321
-0.006205486 0.061341323 0.07428488 0.078641355 0.05496081 0.009907302 -0.027078038 0.02013461
-0.019942254 0.0073917955 0.018816883 0.032110553 0.036630195 -0.013289988 -0.06605086 -0.038955614
-0.010417382 0.0018553591 0.0052667344 0.15481196 -0.13655435 0.013998573 0.4817599 -0.08388656
-0.38966414 -0.15068264 0.13376427 0.10741923 0.17031725 -0.09746037 0.021807443 0.5518137

features.2.weight f4 [15]
00000000: 6847 613f 1d26 f03e 561e 313f d7bf af3f
00000010: adf9 1a3f 723b 873f 9cf1 9d3f d604 143f
00000020: 1449 473f a88a 193f 39b0 383f c71b 213f
00000030: 71ea ad3f 1928 a53f d6aa 283f
0.8799958 0.46904078 0.69186914 1.373042 0.60537225 1.0565016 1.2339358 0.5781988
0.77845883 0.599772 0.72143894 0.6293301 1.3587171 1.2902862 0.65885675

features.2.bias f4 [15]
00000000: 4197 023f a513 1ebe a984 b23d b08e a83e
00000010: 996a c13c b8ae cf3d d5f1 b23d 3515 0f3f
00000020: bacb 5c3e cc52 95be 2eb9 77be db39 38bc
00000030: 60a8 d5bd bd0b 3a3e 0ae3 993e
0.51012045 -0.15437181 0.08716709 0.32921362 0.0236104 0.10140747 0.08737532 0.55891734
0.2156209 -0.29164732 -0.24191734 -0.011244263 -0.104325056 0.1816854 0.3005603

features.2.running_mean f4 [15]
00000000: ad4e 4c3f f354 6640 eec5 2f3f 52a7 323f
00000010: 3f31 bd3f 0210 283f 2bd3 4a3f 35ce ae3f
00000020: c676 2e40 1fb2 8e3f 7b3b ee3f 5a44 1f40
00000030: 97b1 4e3f 73cd 6e3f f471 223f
0.7980755 3.598935 0.6866139 0.6978656 1.4780654 0.65649426 0.79228467 1.3656679
2.7259994 1.1148108 1.8611902 2.4885468 0.8073973 0.9328224 0.6345513

features.2.running_var f4 [15]
00000000: 0aee b23f 7536 b441 dd3c 893f 6b09 fd3f
00000010: 62e0 6440 ab43 ca3f 2119 1540 72df 8540
00000020: e836 8341 d231 0540 e5e0 0041 a40d 2541
00000030: 57f2 0640 56ca 6e40 084c 3e3f
1.3978894 22.52659 1.0721699 1.9768499 3.5761952 1.5801901 2.3296587 4.183526
16.40181 2.0811658 8.054906 10.31583 2.1085413 3.7310996 0.74334764

features.4.weight f4 [25, 15, 5, 5]
00000000: 920e 203d f686 1f3c ff6f 8d3c 1896 2b3d
00000010: 5862 153d 7586 d4bc ee03 d2bc 75c7 e1bc
00000020: 0db2 003c 766a e7bc b6b3 2dbd cc48 73bd
00000030: df21 abbd 8b35 5ebd 0567 9abd 5dd1 65bd
00000040: 81ac 92bd 778f 8abd 06db 98bd 1b83 aebd
00000050: cda7 433b 6b09 90bc bd6d 15bd 1eb1 dabc
00000060: 198c 3ebd 511c baba 3341 733c 491b 933b
00000070: 2e64 e33c 093d 3a3d 4106 4b3c 39bb 4b3a
00000080: 54e8 b93c 352b db3c 71ca 5b3d 3111 8b3c
00000090: 8e6a f13c 576e 053b 617e e83b eacf 023d
000000a0: 83e7 d43c 894a 02bb 8c94 ce3c 8d96 323d
000000b0: efb6 023d 923c 533d 0069 873d 8942 663d
000000c0: ef1f 893d b31a a63d efea e9bc 8cd3 2cbc
000000d0: 5a5f 22bd 7506 6cbd 65f3 22bd da26 a5bd
000000e0: 3504 8dbd 91f0 8abd 74a1 85bd 3d33 81bd
000000f0: b4c0 b5bd 34e2 abbd bf9b 78bd 7291 7dbd
00000100: 74b5 5abd 0a94 3bbd 0a99 2abd 1735 60bd
00000110: c7d1 26bd 2baf 7ebd 1445 05bd 33f4 09bd
00000120: b654 14bd d081 66bd 0219 6dbd e812 78bd
00000130: 91ac cabd 35c3 1abe f221 26be f95d f8bd
00000140: b1da e5bd 5930 0bbe 352f 4abe cd7b 4dbe
00000150: 9d6a 2dbe 77c3 2cbe dd3f 5dbe 0489 78be
00000160: 7df6 7abe a2eb 5bbe 7664 1abe 6480 49be
00000170: 29ae 51be 15dd 49be e523 27be f36c 83bd
00000180: d5e7 1bbe ce60 38be 9c61 f2bd 5b6d c9bd
00000190: 930b 513c 44e6 ae3b cf75 c63c c45a 143d
000001a0: 7a1e 953d ea15 e7bb a709 b5bc fb53 11bc
000001b0: 3b33 843c f8d9 eb3c 8873 93bc 015c 323c
000001c0: 1cd8 b13b f396 ac3c ec5b 003d 3e06 043c
000001d0: fbf5 b33c 706b c03c 14ea 323d fb06 773d
000001e0: bc14 e23c b4d4 363d 51c6 853d b484 883d
000001f0: ad8f da3d 324c 8ebd 554c adbd 95be c5bd
00000200: 650b 93bd d031 883c 0b40 76bd 40d9 afbd
00000210: c12b a3bd ad99 77bd 4e9b 02bc 7fec 2dbd
00000220: cef8 65bd f720 53bd e955 1dbd 8ee1 a0bb
00000230: c93d 493c 28a0 63bc 9e34 ddbc fee2 84bc
00000240: 9662 2c3d eb3f 8a3d 582d 0b3d f35d d03c
00000250: 7409 363d 03e1 cc3d 2d02 aebd 1240 a2bd
00000260: eb6c 8bbd 8711 e2bd 6000 e0bd 7def 63bd
00000270: 6014 fbbd 13d1 e1bd 3dde c9bd ae5a f3bd
00000280: 7b2a 00be 8546 3abe 3ff7 d4bd 0d9d 83bd
00000290: 747c 9ebd 4cec 99bd 2aec 0bbe 98df 01be
000002a0: 5338 c9bd a759 b3bd 5237 b43d 6b14 06bc
000002b0: db80 6dbc bb58 24bc 52e1 073c 4146 2abd
000002c0: bbe9 53bd 2b56 f6bc 5f6b 98bc 0862 18bd
000002d0: 7c88 84bd c95d 6ebd 6c5b 95bd e171 17bd
000002e0: 7dcf 37bd 265d 96bd 4635 90bd 2d31 8ebd
000002f0: e377 6ebd e986 49bd ff65 80bd 30df 61bd
00000300: 6e1b 8ebd 17ee a3bd 08a8 9cbd 62a0 0e3a
00000310: f9b7 24bd 6867 40bd 99fd 52bd 4cdd f8bc
00000320: a9ae 80bc d5ff c5bc ba04 8b3b 3a3f 913c
00000330: 2bd0 ae3c 3952 38bd b2f9 62bd cd24 80bd
00000340: 08bc 4dbd 2455 3ebd 5f07 9cbd 820d b4bd
00000350: 9319 52bd b01f b4bd 8d20 68bd 8540 42bd
00000360: 0e5a 4bbd 1627 46bd 0824 87bd 6668 7fbd
00000370: 6ab2 18bd c736 02bd 5731 b7bc 3896 0ebd
00000380: 1728 39bd d30a 7eba 07ae 633c 51d2 573c
00000390: e51c 273d 0fd0 1d3d 7ac2 9e3c 843f f73b
000003a0: de45 d03c eccd d53b d3a9 063d 66cc a83c
000003b0: f9aa 6a3c 341d d4bb d253 303c 4862 203d
000003c0: afc9 373c b267 453c 2bdc c13c 301a bc3c
000003d0: 7ad1 3d3d 8da6 be3c d321 b43c 5d55 183d
000003e0: 2690 653d 3885 bd3d 78d2 89bd 9f31 b8bd
000003f0: e345 8dbd 9099 45bd aeaf 91bd e97e a3bd
0.039076395 0.009736767 0.017265318 0.041891187 0.03647074 -0.02594302 -0.02563664 -0.027560929
0.007854951 -0.028249007 -0.042407714 -0.059395596 -0.0835607 -0.05425028 -0.07539181 -0.056107868
-0.07161809 -0.06765645 -0.074636504 -0.085211 0.0029854656 -0.017582616 -0.036481608 -0.026695784
-0.046520326 -0.0014199113 0.014847088 0.0044893366 0.02775773 0.045468364 0.012391628 0.0007771734
0.02269379 0.026754001 0.05365986 0.016975971 0.029469755 0.0020359957 0.0070951437 0.031936564
0.0259893 -0.0019880852 0.025217317 0.043600608 0.03191274 0.051571436 0.06611824 0.056215797
0.06695544 0.08110561 -0.028554408 -0.010548484 -0.039641716 -0.057623345 -0.0397829 -0.08064051
-0.06885568 -0.06784166 -0.06524935 -0.06308601 -0.08874646 -0.08392754 -0.060695406 -0.061906286
-0.053395703 -0.045795478 -0.041649856 -0.05473813 -0.040727403 -0.062178772 -0.03253658 -0.033680152
-0.0362136 -0.056276143 -0.057885177 -0.060564905 -0.09896196 -0.15113528 -0.16223887 -0.12127299
-0.11223353 -0.13592662 -0.1974457 -0.20066758 -0.16935201 -0.16871439 -0.21606393 -0.24271017
-0.2450809 -0.21476606 -0.15077385 -0.19677883 -0.20476593 -0.19713242 -0.16322286 -0.06417265
-0.15225156 -0.18005678 -0.11835024 -0.09835311 0.012759107 0.0053375084 0.024226097 0.036219373
0.072812036 -0.007052173 -0.02209933 -0.00887012 0.01613771 0.028790459 -0.017999426 0.010886193
0.0054273736 0.021068072 0.031337664 0.008058129 0.021967879 0.02348873 0.043680266 0.06030939
0.027597778 0.044636443 0.065319665 0.06665936 0.10671935 -0.06948127 -0.08461825 -0.09655491
-0.07179908 0.016625315 -0.06011967 -0.08586359 -0.0796733 -0.06044929 -0.007971598 -0.04246187
-0.05614548 -0.05154511 -0.03841201 -0.0049097007 0.012282797 -0.013893165 -0.027002629 -0.01622152
0.042086206 0.06750473 0.03397879 0.025435423 0.04444261 0.10003855 -0.08496509 -0.07922377
-0.06807884 -0.11038499 -0.109375715 -0.055648316 -0.122597456 -0.11026206 -0.09856842 -0.1188253
-0.12516205 -0.18190964 -0.10398721 -0.064264394 -0.07738581 -0.07515773 -0.13664308 -0.1268295
-0.09825196 -0.08757334 0.08799614 -0.008183579 -0.014496054 -0.010030921 0.008293467 -0.041570906
-0.051736575 -0.030070385 -0.018605886 -0.037202865 -0.06471345 -0.05819491 -0.07292828 -0.036973838
-0.04487561 -0.073419854 -0.07041411 -0.06942973 -0.0582198 -0.049200926 -0.06269454 -0.05514449
-0.069388255 -0.080043964 -0.07649237 0.0005440769 -0.040214512 -0.046973616 -0.05151138 -0.03037896
-0.015708284 -0.024169842 0.004242507 0.017730344 0.021339497 -0.04500029 -0.05541391 -0.06257019
-0.05022815 -0.046467915 -0.076185934 -0.08791639 -0.05129392 -0.087951064 -0.056671668 -0.047424812
-0.04964643 -0.04837712 -0.06598669 -0.06235542 -0.037279524 -0.03179052 -0.022362394 -0.03481123
-0.04520425 -0.0009690944 0.013896472 0.013172702 0.04079904 0.0385285 0.019379843 0.0075454134
0.02542394 0.006524792 0.0328768 0.020605277 0.01432299 -0.006473208 0.010762172 0.03915623
0.011217519 0.012048649 0.023664555 0.022961706 0.04634235 0.023272777 0.021988785 0.037190784
0.056045674 0.09253925 -0.06729597 -0.089938395 -0.068980955 -0.04824215 -0.07113586 -0.079831906

features.6.weight f4 [25]
00000000: 0e53 e13e 2dec b93e 1d66 c93e 7cd0 c63e
00000010: edda ce3e 10ff c23e 529b c93e b23e dd3e
00000020: f0cb e63e 83ad bd3e 90cf df3e 07c1 d13e
00000030: 75bb d43e 4066 c23e 724a c23e c232 ca3e
00000040: 47ae cd3e 94c5 e13e c65c b83e ac54 d13e
00000050: 83c7 d23e 2b72 bf3e ac63 bf3e f58f d13e
00000060: 91fa c43e
0.44008678 0.36313 0.3933572 0.38830936 0.40401402 0.38085222 0.39376312 0.43211895
0.45077467 0.3704644 0.43713045 0.4096758 0.41549268 0.37968636 0.37947422 0.3949185
0.40172026 0.44096053 0.3600828 0.40884912 0.4116784 0.3739179 0.3738073 0.40930143
0.38472417

features.6.bias f4 [25]
00000000: ab22 9dbd 3f0a 0dbe cc19 24be d44e 0ebe
00000010: a6fd 26be 5fd6 d5bd c523 b7bc 6a5a 80be
00000020: 43b6 9fbe 0b75 04be 07a1 7abe f005 2bbe
00000030: 1357 29bd 96ee 27be 27dd 15be 4eb9 06be
00000040: a227 57be d5db 2cbe 4dfb 78be 1405 19be
00000050: b0ce 26be 8a2c 19be 5ddf 00be 59a2 c0bd
00000060: 5021 a9bc
-0.07672628 -0.1377344 -0.16025466 -0.13897258 -0.16307697 -0.10441279 -0.022355923 -0.2506898
-0.31193742 -0.12935273 -0.2447549 -0.16701484 -0.041342806 -0.16399607 -0.14635144 -0.13156626
-0.21011212 -0.16880734 -0.24314614 -0.14943343 -0.16289783 -0.14958397 -0.12585206 -0.09405965
-0.020645767

features.6.running_mean f4 [25]
00000000: d2a5 753e 5e4d cb3e e73a 9a3e 69ff 393e
00000010: bd03 aa3f a724 183e 3852 703f 03c1 c93e
00000020: d7bc 0d40 5c7b 033f 1ec0 343f 32d3 3f3e
00000030: d4b1 013f d2ee 323e 2e15 833e dae9 d03e
00000040: b991 803f 7c66 e23e 61fb 1140 4682 8b3e
00000050: 5751 a83e 2e8d 5140 3dfb d23f f6ed 9c3e
00000060: a868 c73e
0.23989037 0.39707464 0.30123064 0.18163837 1.3282391 0.14857732 0.93875456 0.3940507
2.2146509 0.51360106 0.7060565 0.18732908 0.5066197 0.17473915 0.25602096 0.40803415
1.0044471 0.44218814 2.280968 0.27247828 0.32874557 3.274242 1.6482922 0.306503
0.38947034

features.6.running_var f4 [25]
00000000: 7d81 2c3f adb9 9d3f 3766 953f 4976 f03e
00000010: b124 9e40 5302 b43e 903f 3d40 2fc6 ee3f
00000020: b8e5 1a41 f87d 0740 0d46 4f40 6f3c e33e
00000030: 8054 863f 7a4b d63e 4fe3 2b3f fde8 bc3f
00000040: 51da 3640 dad6 b03f 1a49 4041 8b89 353f
00000050: 41d1 8e3f 20ac 3a41 8b14 b040 e961 aa3f
00000060: d2be 723f
0.67385083 1.2322289 1.1671818 0.46965244 4.941979 0.35158023 2.9570045 1.8654231
9.681084 2.1170635 3.2386506 0.44382045 1.0494537 0.4185446 0.6714372 1.4758602
2.857075 1.3815567 12.017847 0.70913 1.1157609 11.667023 5.5025077 1.331113
0.9482242

classifier.weight f4 [15, 25, 11, 11]
00000000: 978c 3dbd 2e7e abbc 1bdc 21bd ee6f 65bd
00000010: ac11 253d 9c64 993c 8c27 f73c a1bf dbbc
00000020: 823c 6abd ce31 0f3d dd7e ba3b ef58 be3c
00000030: bcc3 913d 029b 14bd 1210 1bbc f827 d43d
00000040: 222b b33d 2652 893d d0e7 3c3c fda7 91bd
00000050: b507 aabc 44e5 3f3b 83e1 5a3d eebb 5c3d
00000060: 7202 c43c ac70 183d 3cf4 193d 21f4 c8bd
00000070: 9bcb 15bd e24d 113d c572 c5bc 82da 983d
00000080: b19c 413d f4f8 49bd 33ea 31bd cd4f 58bd
00000090: 5e43 fdbc b47a 52bc ce42 0cbe 71f4 96bd
000000a0: a994 d0bc cb83 bbbd 8ec7 2d3b 0274 28bc
000000b0: a3af 64bd 6557 28bd a60c 92bb dcd9 843d
000000c0: 2cdc a33d 6b0f 33b9 445c 123e e997 a73d
000000d0: b6a0 24bc 69b1 e0bc ae2a 1fbd 5631 89bd
000000e0: 9b9b 033d bb8e 543d 05e5 d33d 2e4f 623d
000000f0: 3d2d 8f3d 14c1 773d 64e8 3e3d a871 aebc
00000100: 73be 81bd d34b e5bc 5a53 c43c 0feb e13d
00000110: ec93 db3d 5b33 00bc c274 363d c907 213d
00000120: f93c af3c 009d b53d 9894 113e 15b9 403e
00000130: 1272 54bc 80f3 94bb 12bf 9e3c 21e1 983d
00000140: 753b dc3d cd0a 4d3d a4e8 4f3d e774 213e
00000150: 7f6f 873c 22c0 003e 3f74 8d3d 4c43 153d
00000160: bc6e 273d 8764 9e3a 49df 1ebd 5e1d b63d
00000170: 83da 6bbb 80a7 c3bb e916 0f3c 0ff0 833d
00000180: 8d33 683c 4c16 08bd 8569 933d 244e 923d
00000190: c92e 383d cb28 bb3c fe65 a83d 527e 9c3d
000001a0: 85b3 d93c 0432 353d 6603 d63b 7dcf 143c
000001b0: d9b1 40bc f6dd 713d d75e 3d3d c194 01bd
000001c0: 3367 ab3a 1859 ce3d 59b1 c93c 8d9d 9c3c
000001d0: 0fdb 07bb 8c16 6e3d 003b 15bd e144 193d
000001e0: f8f3 1a3e d3bb 103d e55e 2a3d bc61 72bd
000001f0: 5cc3 a73d 87a3 93bb a678 4abb 6701 01bd
00000200: c42a a4bb 3e85 f83c 2d1d 1b3d ad62 893c
00000210: dd65 4b3d a432 133d 61c6 76bd 50b5 833b
00000220: a8d5 273d c600 0e3d 4d9f 2bbd a9e1 87bc
00000230: a70b d93d bd6f debb 667e ec3d 6904 543d
00000240: dcd9 833d d8ce c3ba 8cc7 1fbc 001e 073d
00000250: 1346 cd3c 0d16 be3d ac72 463c 9b80 b83c
00000260: 2a34 483c 5cb9 0d3e d169 f93d 16e2 553d
00000270: 0549 2c3d 9f5f 51bd 352a 5c3c 22c9 80bb
00000280: 720c b03d 72d2 0b3d 202d d6bc 06d2 3c3d
00000290: ab8c 8c3d 8cf0 893c 7f6f 71bb 92e1 f73c
000002a0: 3f62 45bd 712d 87bd 2db5 053d a5ef 133d
000002b0: 5929 27bd 6c36 29bb 5476 82bd fcc0 10bd
000002c0: cb82 053d 3cb6 98bd 1751 91bc 7e9d 2dbc
000002d0: 3510 333c a297 44bc ab60 f0bc 3906 1fbc
000002e0: 473b d9bc 66d4 a4bc e998 c5bd 321e d03c
000002f0: bccc 1a3c 2e15 843d 7f28 7ebc 85cc 3cbd
00000300: 0b4f 543d dc3e 1a3a 13fe d8bc 66ad 6bbc
00000310: cad6 b5bc bb25 c1bd 5208 753d 6030 09bc
00000320: 1eb8 7ebd 5ab2 1ebd 9b6a 7fbd 6ab9 e53c
00000330: c140 513d e085 1cbc 88b0 a2bd d374 c33b
00000340: fe71 143d bab5 713b f55e 053c b6cc b4bd
00000350: 2639 08be e6ba f8bc 3250 edbc 73af 49ba
00000360: 02a8 17be 4793 17be 60d0 fdbc c16a 933d
00000370: cad4 c5bb 21f7 8b3c 6958 0cbd eb0c cdbd
00000380: 84f2 bbba 62e9 f5bc 9d07 c2b9 679b 823c
00000390: eaea 49bd ba04 e0bc 1194 a03c 7099 303d
000003a0: 713d 313d a689 593d 74ad 583d 1918 443c
000003b0: 79f2 4cbd 7683 933d 826a e0ba 0e36 2f3d
000003c0: 39a5 ad3b 2ff1 c13d ee77 4fbd ba32 2bbd
000003d0: 8275 30bb ff02 653c beb1 f13c bba2 55bd
000003e0: 6734 b53c 3846 97bd ce86 753d 6130 e1bb
000003f0: 8810 9ebd b7bc d1bd 564c cebd dff9 75bc
-0.046276655 -0.02093419 -0.03951655 -0.056014948 0.040300056 0.018724732 0.030170225 -0.026824774
-0.05718661 0.034959607 0.005691393 0.023235766 0.071174115 -0.03628064 -0.009464281 0.10359186
0.08748461 0.06705122 0.011529878 -0.07112119 -0.020755628 0.002928094 0.05343772 0.05389016
0.023926947 0.037216827 0.037586436 -0.09812189 -0.036571126 0.035474665 -0.024102578 0.07463552
0.047268573 -0.049309686 -0.04343624 -0.05281048 -0.030915912 -0.0128466375 -0.13697359 -0.07370842
-0.025461512 -0.09155997 0.002651665 -0.010281565 -0.055831563 -0.04109897 -0.004457074 0.06486866
0.08000979 -0.00017076514 0.14293009 0.081832714 -0.010048082 -0.027428346 -0.038859062 -0.06698863
0.03213082 0.05189393 0.103464164 0.055251293 0.069910504 0.060486868 0.046608344 -0.02129443
-0.063351534 -0.027990257 0.023965526 0.11031162 0.10721573 -0.007824744 0.044544943 0.039314065
0.021391379 0.08867836 0.1421684 0.18820603 -0.01296665 -0.004545629 0.019378219 0.07464815
0.10753528 0.05005913 0.050758973 0.15767251 0.016532658 0.12573293 0.06906938 0.036441132
0.04087709 0.0012084403 -0.03878716 0.0889232 -0.0035988397 -0.0059708953 0.00873349 0.06442272
0.014172447 -0.03322439 0.07197861 0.071438104 0.044966493 0.0228466 0.082225785 0.07641281
0.02657486 0.04423715 0.006531167 0.009082672 -0.011761152 0.05904957 0.046233024 -0.031636003
0.001307702 0.10075587 0.024620699 0.019118095 -0.0020729934 0.05812697 -0.03643322 0.037419204
0.15132129 0.035335373 0.041594405 -0.059175238 0.08191559 -0.004505578 -0.0030894666 -0.031495478
-0.005009981 0.030336972 0.03786962 0.016770685 0.04965769 0.035936967 -0.060247783 0.004019417
0.040975243 0.034668706 -0.041899968 -0.016587095 0.10597926 -0.0067882226 0.11547546 0.05176202
0.06438038 -0.0014938964 -0.0097521655 0.032987595 0.025057828 0.092815496 0.012112301 0.022522261
0.012219468 0.1384024 0.12178386 0.052217565 0.042061824 -0.051116582 0.013437797 -0.003930227
0.08596124 0.034136243 -0.026144564 0.04609873 0.06862768 0.016838335 -0.0036840138 0.030258927
-0.048189398 -0.06600464 0.032643486 0.036117215 -0.040810917 -0.0025819791 -0.063702255 -0.035340294
0.032595437 -0.074566334 -0.017738862 -0.010596631 0.010929157 -0.011999043 -0.02934297 -0.009706073
-0.026517523 -0.02012081 -0.09648306 0.025405023 0.009448227 0.06449352 -0.015512585 -0.046093483
0.051833194 0.00058840006 -0.02648834 -0.014384603 -0.022197146 -0.09431025 0.059822388 -0.00837335
-0.062187307 -0.038744308 -0.062357526 0.028042514 0.051087145 -0.009553403 -0.07943827 0.0059648543
0.036241524 0.0036882 0.008140315 -0.08828108 -0.1330305 -0.030362558 -0.028968904 -0.00076936855
-0.14810184 -0.14802276 -0.03098315 0.07198096 -0.0060373293 0.017085614 -0.034264002 -0.100122295
-0.0014339243 -0.030018512 -0.00037008236 0.015943242 -0.049296297 -0.027346004 0.019601854 0.04311508
0.043271486 0.053109787 0.052899793 0.011968636 -0.050035927 0.072028086 -0.0017121586 0.04277616
0.005299237 0.0946983 -0.050651483 -0.041796423 -0.002692551 0.013977765 0.0295037 -0.052157145
0.022119714 -0.0738644 0.059943013 -0.0068722223 -0.07717997 -0.102410726 -0.10073154 -0.015013187

classifier.bias f4 [15]
00000000: 50af ba3d 4831 6fbe eb6c 833d 3982 e8bd
00000010: 2d04 5d3e 91c1 bd3d b225 6a3e 25c2 953d
00000020: 7c72 713e d8ff ca3d 2eff 2c3d dc68 0bbd
00000030: 57fe 29be 87c9 96be 1027 9abe
0.091154695 -0.23358643 0.06417259 -0.11352963 0.21583624 0.092654355 0.22865942 0.07312421
0.23578829 0.099120796 0.042235546 -0.03403555 -0.16600929 -0.29450628 -0.30107927

momentum_buffer f4 [15, 1, 9, 9]
00000000: 717b 2b3c 7400 5a3c 3001 8d3c 0ad2 003d
00000010: 6014 123d 40ab 093d 1abb 2d3d 53d9 713d
00000020: 612b 813d 3487 343b c6ba b73b cf07 5f3c
00000030: f618 f93c f83c 183d ef6d 213d 45eb 493d
00000040: 84be 6a3d fda7 6a3d d51f bf3c d70d e03c
00000050: 4133 0a3d 1a8d 473d 43c8 653d 7b09 563d
00000060: e365 7d3d 4ab0 7e3d c6ce 7d3d e31e c73c
00000070: 1845 0e3d 3e11 0a3d 20e2 e63c 447c 193d
00000080: dccb 273d d94a 573d e9f3 6f3d 0857 873d
00000090: be64 0c3d a74f 113d d816 043d 0339 033d
000000a0: e05b 1b3d 4bc0 063d b092 463d fd20 773d
000000b0: fa18 923d dd12 543d b57d 133d 2e18 ed3c
000000c0: 38dd 163d fe41 393d c449 2f3d 7cd5 7d3d
000000d0: b6cc 7c3d eb71 7a3d 0892 513d a62f 163d
000000e0: d524 143d 49c0 613d ca86 833d b95f 5b3d
000000f0: e780 8e3d 2212 803d 5ef3 503d 7f1f 233d
00000100: 414f 163d 2b15 393d 3be7 813d e3c7 983d
00000110: fd08 923d f803 a13d 323e 8b3d 4ff4 5d3d
00000120: b8e5 153d a52a 163d d8a1 3c3d 6c5f 853d
00000130: 9389 9c3d 6bf5 b13d dc16 d33d e710 c43d
00000140: 3566 ad3d 52fa be39 984e beb9 9e08 6cba
00000150: 40e0 7bba 7222 5eba 58b5 82ba f593 8bb9
00000160: ca1c cc38 1452 49b9 8a90 ce3a e390 453a
00000170: f2ca 15b9 38ab d3ba 28eb 09bb 43a9 22bb
00000180: f837 01bb 0385 e1ba eb35 03bb 902a 1f3b
00000190: 968c 183b 36b9 753a 186f c2b8 1e0d 27ba
000001a0: 58a4 8eba 3142 a6ba 918c 93ba 8e4a 9bba
000001b0: ee83 f43a eef1 fb3a 2b9a 813a ff7f 17b9
000001c0: 0d6a 94ba 7089 fdba aea7 ffba 3b4a c8ba
000001d0: 642b e8ba 98f6 cd38 82f5 7b39 14e8 5bba
000001e0: 1e07 a3ba 8c10 06bb 5917 3fbb 6613 34bb
000001f0: d2b3 ebba 4209 a8ba f883 f038 1fad c338
00000200: 5674 72ba c6e0 c8ba 704d 14bb 2c99 3ebb
00000210: 2731 37bb 4a6e 15bb 9ed9 0dbb 08b2 ec39
00000220: 9a04 b239 0b6f 77ba 92ae 8fba e4d8 bdba
00000230: b949 e5ba bb07 15bb d8b9 10bb c944 99ba
00000240: c4d8 7139 a2fa 4239 46a7 1aba 7009 97b8
00000250: dc10 afb9 f2d9 b7ba 5ada ebba 300c d1ba
00000260: 8f17 8fba 539b 2d3a 23bd a43a 98d5 2d3a
00000270: dbff b23a 5db1 c03a d0cd f938 8dc8 48ba
00000280: c7f9 9aba 5c04 51ba 05ff b2bc fd22 d4bc
00000290: e44c f2bc 42f7 edbc 60f5 9cbc d08a 90bc
000002a0: fbb6 2fbc 85d2 2fbc f025 573b 701e a9bc
000002b0: 7a51 babc f46d d7bc fdf4 bfbc b621 75bc
000002c0: 54e0 92bc f7f6 44bc f075 b6bb 5e2d 093c
000002d0: 303a 73bc 3a95 42bc 7ecb 79bc bb97 81bc
000002e0: 80a5 51bc c52a 90bc d112 eebb 5424 13bb
000002f0: 17e8 4a3c bb0a c3bb e1a4 15bb 728a 47ba
00000300: 41b8 fbba abc3 8fba 4331 9bbb 4493 cc3b
00000310: 693a 133c 9e60 b13c 8450 c63b 6715 0d3c
00000320: 4029 483c 9ff9 633c 3e53 373c ef7d 8a3b
00000330: b215 a23c d84b 8d3c f4f8 d23c 728a f13b
00000340: 6921 293c 50af 253c 95be 6e3c 8258 753c
00000350: d46a 2a3c 2625 d03c 762f b23c e883 f43c
00000360: 420f e63b ae3d c73b db9e 953b 7746 7d3b
00000370: 8818 653a 6ce1 32bb 0ab1 863c 8eb9 a33c
00000380: 85ec ca3c 24a2 78ba e778 57bb 32be b7bb
00000390: c873 fcbb 9406 03bc fa22 1dbc 4a6e ba3b
000003a0: 30e9 7a3b 2c2d cd3b 7d3d c6bb 4ad9 4abc
000003b0: f6d3 a0bc e69f 96bc f908 8fbc 2d61 30bc
000003c0: adef 8e3b a460 463b 882a a33b abbd aabe
000003d0: cd93 99be 5b0b 90be 4b51 86be 62e5 6fbe
000003e0: b8c5 52be 92a8 4fbe d8e4 6cbe af5e 74be
000003f0: 24fa c8be 0a45 babe 0915 acbe 8abc a2be
0.010466442 0.013305772 0.01721248 0.03145031 0.035663962 0.033610582 0.042414762 0.059045147
0.06307102 0.0027546408 0.005606982 0.013612702 0.03040741 0.03716752 0.03941148 0.049296636
0.057310596 0.057289112 0.023330608 0.02735035 0.033740286 0.04871855 0.056099188 0.052255135
0.061864745 0.06217984 0.061964773 0.02430672 0.03473386 0.03370785 0.028183997 0.037472025
0.0409659 0.052561615 0.05858222 0.06608397 0.034275763 0.035476353 0.032248348 0.032036792
0.037929416 0.03289823 0.048479736 0.060334194 0.0713367 0.051775802 0.036008555 0.028942194
0.036832064 0.04522895 0.042794958 0.061971173 0.061718665 0.061143797 0.051164657 0.036666535
0.03616794 0.055115018 0.06422193 0.053558085 0.0695818 0.062534586 0.051013343 0.03982496
0.036696676 0.045186203 0.06342932 0.0746 0.07130621 0.07862085 0.06798972 0.05418807
0.03659603 0.036661763 0.046052784 0.06512341 0.07643428 0.08689388 0.103070945 0.09573536
0.0846676 0.00036426127 -0.0003629818 -0.00090039696 -0.0009608306 -0.00084737607 -0.0009972258 -0.00026622383
9.7328404e-05 -0.0001919943 0.0015759629 0.00075365434 -0.0001428535 -0.001614905 -0.0021044705 -0.0024820126
-0.0019717198 -0.0017205778 -0.0020021151 0.0024286844 0.0023277155 0.0009373607 -9.271334e-05 -0.0006372499
-0.0010882718 -0.0012684521 -0.0011257102 -0.001184778 0.0018655041 0.0019221881 0.0009887865 -0.00014448164
-0.001132311 -0.0019343328 -0.0019504928 -0.0015280911 -0.0017713127 9.8210934e-05 0.00024028684 -0.00083887693
-0.0012438034 -0.002045664 -0.0029158203 -0.0027477383 -0.0017982668 -0.0012820142 0.00011468673 9.330571e-05
-0.0009248903 -0.0015325777 -0.0022629164 -0.0029082997 -0.002795288 -0.0022801333 -0.0021644603 0.0004514607
0.00033954234 -0.0009438849 -0.001096206 -0.0014484194 -0.0017493285 -0.0022740203 -0.0022083428 -0.0011693473
0.00023064303 0.0001859465 -0.00058995595 -7.201999e-05 -0.00033391162 -0.0014026745 -0.0017994151 -0.0015949067
-0.0010917055 0.00066225714 0.0012568574 0.0006631254 0.0013656573 0.0014701296 0.00011911581 -0.0007659279
-0.0011823707 -0.0007973367 -0.021850118 -0.02589559 -0.02957768 -0.029048566 -0.019159973 -0.017644316
-0.010724778 -0.010731344 0.003282901 -0.020644397 -0.02274393 -0.026297547 -0.02343225 -0.014961651
-0.017929234 -0.012021772 -0.0055682585 0.008372633 -0.014845416 -0.011876399 -0.01524627 -0.015819421
-0.012795806 -0.01759852 -0.0072654267 -0.0022452073 0.012384436 -0.005952207 -0.0022833871 -0.00076118775
-0.0019204692 -0.0010968348 -0.004736097 0.0062431414 0.008986094 0.021652516 0.0060520787 0.00861106
0.012216866 0.013914495 0.01118928 0.0042264382 0.019785736 0.01724808 0.025753476 0.0073712403
0.010322907 0.010112599 0.0145718055 0.014974715 0.010401446 0.025408339 0.021751147 0.029848054
0.007020862 0.006080351 0.004566056 0.0038646737 0.0008739312 -0.0027295006 0.01644184 0.01998594
0.024770984 -0.000948461 -0.003287846 -0.00560739 -0.007704232 -0.007997174 -0.009590859 0.005689417
0.0038285963 0.0062614884 -0.0060498104 -0.012380907 -0.01963232 -0.018386792 -0.017460333 -0.010765356
0.0043620677 0.0030270005 0.0049794354 -0.3334783 -0.29995576 -0.28133664 -0.26233897 -0.23427346
-0.20583236 -0.20279148 -0.23134172 -0.23864244 -0.39253342 -0.36380798 -0.336098 -0.3178447

momentum_buffer f4 [15]
00000000: c04d 313e d53e 5bbe 43f9 91ba a818 8a3e
00000010: 1207 873d 68ae db3d 09c3 843d 7226 f83d
00000020: 63cc 8abc 2590 f1bc 1507 b7bd 30a7 77be
00000030: 4579 1ebe 9219 a9bc ea77 78bd
0.17314816 -0.21410687 -0.0011136908 0.26971936 0.065931454 0.10726625 0.064825125 0.12116708
-0.016943162 -0.029487679 -0.08936898 -0.2418487 -0.15475948 -0.020642076 -0.060661234

momentum_buffer f4 [25, 15, 5, 5]
00000000: 7806 0ebd 970b 0abd 4dd6 0cbd b812 10bd
00000010: 2456 0bbd 671e 36bc 8237 18bc 5b78 e0bb
00000020: 3b31 08bc da62 3cbc b265 193b 1401 cb3b
00000030: 188e c73b e615 db3b 7a32 b23b 0af7 b83b
00000040: 6c91 043c 57f1 103c fb34 153c 0fa3 253c
00000050: 465b 373b ecac 083c 95f5 1c3c b615 0d3c
00000060: aafc 183c 7e79 5fbc 5f4b 5dbc 81a1 47bc
00000070: 0a30 48bc 09be 4bbc 22f7 c3bc 792b c4bc
00000080: 0571 b9bc 908a b8bc 1549 b7bc 4155 d8bc
00000090: 23ad d7bc fd49 ccbc 294b c8bc 2272 c9bc
000000a0: e609 dbbc 60ab e1bc c6d6 dabc a3a4 d7bc
000000b0: 047b dabc 99f5 debc da19 e2bc ec9e e0bc
000000c0: 2606 ddbc 1cbd ddbc facc f1bb 47c3 bbbb
000000d0: e8b0 a8bb 9cca 98bb 533d 9ebb c1c2 22bb
000000e0: 9c21 d8ba 6844 2bba e4b0 4cba 4a6d 9aba
000000f0: 8ab1 5cbb dcdb 31bb 06c0 02bb efbc 1fbb
00000100: 4cc0 3abb 7350 70bb 4c93 81bb 169d 30bb
00000110: 0ae1 54bb dd0c 8cbb e0c7 4c3a c07a b239
00000120: 9cc9 943a 00c0 edb7 b057 71ba 1846 933c
00000130: 5cba 7a3c 2280 cd3c 5a2d c23c 4ae8 8b3c
00000140: f001 98bb 32cd 66bc 2fae 2cbc 6043 02bc
00000150: 09b2 60bc 4876 1e3b f0d4 e8b9 2e52 d1bb
00000160: 5a84 1abc 322b 68bc 84c8 f33b 5722 af3c
00000170: 1ff7 9cbb bd33 8cbc d141 2dbc 7a9f 533c
00000180: a765 213d 40e5 163c c169 9cbc d7fc 39bc
00000190: 96cf e1bc a66b d4bc 1ff9 ccbc 1484 d8bc
000001a0: deb2 cbbc 7200 dbbc 5683 c6bc 4dcb c2bc
000001b0: f919 cebc 5107 dfbc 9eab eabc ee73 dbbc
000001c0: e09d d7bc d882 ebbc ddbf 01bd 0b44 e3bc
000001d0: de1b d4bc 3700 e2bc 5b6a f9bc 4932 03bd
000001e0: f4f5 d5bc 5440 c4bc 2059 ccbc 308d dcbc
000001f0: f003 dbbc 6414 d4bc 0eaf c0bc 2850 95bc
00000200: e0d1 9abc c832 84bc e550 0bbd c4c6 a8bc
00000210: 00ba 91bc 0242 80bc 6269 90bc 4bf3 cfbc
00000220: a80d 1bbc 5271 36bc b9e1 bdbc db34 01bd
00000230: eed8 76bc 9b47 24bb 564a 13bc 7471 f3bc
00000240: ba20 21bd 4307 3bbc 5aca c1ba e192 1ebc
00000250: 1c37 06bd c904 31bd df64 0bbd a0cb eebc
00000260: d91d d3bc ba55 c5bc d5c9 82bc d857 04bd
00000270: 6980 0ebd 23df 1abd 6a3c 23bd 59e0 b5bc
00000280: 6ee1 08bd c4ff edbc 74ed febc fa12 16bd
00000290: 3761 d3bc 629b f5bc 5a03 10bd 19d9 bbbc
000002a0: 66db febc 7c6b d2bc 4294 dfbc e92f fcbc
000002b0: 117d 9dbc ba57 d7bc a0c6 c6bc 32d0 0fbb
000002c0: 3ec9 7cbb 6235 70bb a7dc 78bb 4e31 62bb
000002d0: bee0 e53b 4a16 fe3b 87c7 073c 1e23 0d3c
000002e0: 7247 073c 4ddd 353c f502 3a3c f4f9 343c
000002f0: 6018 333c c3b0 343c 7632 213c 25a2 243c
00000300: 5410 1f3c a3c0 1a3c 0c37 153c a2f5 253c
00000310: 7432 283c 5fae 243c 898d 173c 5856 0b3c
00000320: 1480 9fbc 1f48 92bc 0976 a0bc ca27 aebc
00000330: 93eb b5bc afe8 f8bb 88f6 c8bb f863 bebb
00000340: a298 b1bb a4df afbb b630 5a3a 923c ff3a
00000350: e41e 283b fa27 103b 0de7 f93a dcde 3fba
00000360: 201c 04b9 ac18 393a e024 2a3a 6037 e5b8
00000370: d03a e1b9 c022 beb8 a8e6 833a a4b1 533a
00000380: b0e9 cab9 9423 09bd 4cf0 06bd 9ac2 00bd
00000390: dcd8 00bd 55fb f5bc 66bf 0cbd 266a 09bd
000003a0: 1552 07bd 3426 08bd d496 0bbd f279 0fbd
000003b0: 11a8 0bbd 98e9 06bd 48bd 09bd 67cf 11bd
000003c0: fb3a 16bd 16a0 13bd c744 16bd 6a55 1dbd
000003d0: c88d 24bd 0664 0abd c62c 0dbd ae87 0fbd
000003e0: 7100 13bd 34db 0ebd a5db 70bc b0e8 6abc
000003f0: d6d9 6bbc dbc9 6cbc 4200 76bc f0e1 17bc
-0.034674138 -0.03370246 -0.03438406 -0.0351741 -0.034017697 -0.011115647 -0.009290578 -0.006850285
-0.008312519 -0.011498177 0.0023406562 0.006195197 0.006089937 0.00668596 0.005438146 0.0056446837
0.008091312 0.008846602 0.00910687 0.010109677 0.0027977987 0.008342009 0.009580036 0.008611133
0.009337584 -0.013639806 -0.013506739 -0.012184502 -0.012218485 -0.012435445 -0.023921553 -0.02394651
-0.0226369 -0.02252701 -0.022373715 -0.02640784 -0.026327675 -0.024937624 -0.024449902 -0.024590556
-0.026738118 -0.027547538 -0.02671374 -0.026323622 -0.026669987 -0.02721672 -0.027600218 -0.02741953
-0.02698047 -0.027067713 -0.0073791714 -0.005730066 -0.005148042 -0.004662825 -0.0048290878 -0.002483532
-0.0016489509 -0.00065333256 -0.0007808341 -0.0011781838 -0.0033675157 -0.0027139103 -0.001995088 -0.0024374088
-0.0028495966 -0.0036669045 -0.0039543267 -0.00269491 -0.0032482767 -0.0042739944 0.0007811766 0.00034042262
0.0011351588 -2.8342009e-05 -0.0009206487 0.01797776 0.015303221 0.025085513 0.023703266 0.017078537
-0.004638903 -0.014087008 -0.0105395755 -0.007950634 -0.013714322 0.0024179388 -0.0004440914 -0.0063879704
-0.009430969 -0.014170455 0.007439675 0.02137868 -0.0047902013 -0.017114514 -0.010574774 0.01291644
0.039403584 0.009209931 -0.019093396 -0.011351786 -0.027564805 -0.025930237 -0.025021134 -0.026430167
-0.024865564 -0.02673361 -0.024232548 -0.023778582 -0.02515887 -0.027225168 -0.028646287 -0.026788678
-0.026320398 -0.028748915 -0.031677116 -0.027742406 -0.025892194 -0.027587993 -0.030446222 -0.032030378
-0.026118256 -0.023956455 -0.024944842 -0.026922792 -0.026735276 -0.02588863 -0.023520973 -0.018226698
-0.018898904 -0.016137496 -0.034012694 -0.020602591 -0.017788887 -0.015656475 -0.017628375 -0.025384566
-0.009463705 -0.011135416 -0.023178922 -0.031544548 -0.0150663685 -0.0025067094 -0.008989891 -0.029717185
-0.03933785 -0.011415306 -0.0014785037 -0.009678573 -0.0327674 -0.043217454 -0.034031745 -0.02914983
-0.025771068 -0.02408873 -0.015965382 -0.032310337 -0.03479043 -0.037810456 -0.039852537 -0.022201704
-0.03341811 -0.029052623 -0.031119086 -0.03663919 -0.025803192 -0.029981319 -0.035159446 -0.022930669
-0.031110477 -0.025686018 -0.027292375 -0.030784564 -0.019224675 -0.026286948 -0.024264634 -0.0021944162
-0.0038572098 -0.0036652912 -0.0037973316 -0.0034514251 0.0070153167 0.007754122 0.008287317 0.00861433
0.00825678 0.0111001255 0.011353244 0.011045922 0.010931104 0.011028471 0.009838691 0.010048424
0.009708483 0.009445342 0.0091073625 0.010129364 0.010265935 0.010051339 0.009250053 0.008504473
-0.019470252 -0.017856656 -0.019587534 -0.021259207 -0.022207057 -0.0075960974 -0.0061329044 -0.005810257
-0.0054198066 -0.005367236 0.00083232985 0.0019473007 0.0025653178 0.0021996484 0.0019066051 -0.00073192804
-0.00012598978 0.00070608663 0.000649048 -0.00010929885 -0.00042959163 -9.066379e-05 0.0010063248 0.0008075482
-0.00038702553 -0.033481196 -0.03294401 -0.031435587 -0.031456813 -0.030027071 -0.03436222 -0.033548497
-0.033037264 -0.03323956 -0.034079388 -0.035028405 -0.034095827 -0.032937616 -0.03362778 -0.035598185
-0.036677342 -0.03604134 -0.036686685 -0.038411535 -0.040174276 -0.033786796 -0.034466527 -0.035041504
-0.035889093 -0.034877017 -0.014700805 -0.014337704 -0.014395198 -0.014452423 -0.01501471 -0.009270176

momentum_buffer f4 [25]
00000000: e785 80bd f09d b63b f27c 80bd fab2 49be
00000010: 57e1 84bd a373 7cbe 413a 83be 7c34 af3c
00000020: ee16 383e 527a dd3d b6e9 da3e f1b1 e53d
00000030: 1878 2bbe 3434 99bd d78a c03d 1c9a fdbd
00000040: a496 8b3e 64eb af3d 4092 76bc 4b03 3bbe
00000050: b05f 443d 7f12 c43d 036c 063e b68d 4abe
00000060: c80b d33e
-0.0627554 0.005573027 -0.062738314 -0.1969718 -0.06488293 -0.24653487 -0.25630382 0.021387331
0.17977497 0.108143464 0.42756432 0.1121558 -0.16745031 -0.0748066 0.094014816 -0.1238291
0.27263367 0.08589819 -0.015049517 -0.18262975 0.047942817 0.0957384 0.1312714 -0.19780621
0.41219926

momentum_buffer f4 [15]
00000000: 98b7 dbbb 3a50 f1bc 4654 0e3d 50aa 7cbc
00000010: b862 163d a6be 65be 4869 46be 38ba e0bd
00000020: a8dd ab3d e0a8 6d3d 069d 443d 0578 68bd
00000030: 675e 6b3c 0068 363a 23bc a1bd
-0.0067052357 -0.0294572 0.03474834 -0.015421465 0.03671524 -0.22436008 -0.19376099 -0.109730184
0.08391887 0.05802238 0.04800131 -0.056755085 0.014365769 0.0006958246 -0.07897212

momentum_buffer f4 [15, 25, 11, 11]
00000000: 9a78 ac3c 2cda ff3b baaf 683b fd61 c9bb
00000010: 0858 9b3c 70ac 46bc e755 043c 98b3 153c
00000020: 05d5 7bbb 2eb7 693b 566f 0a3b 01f0 073c
00000030: 7565 5a3c b7b1 eb3b 03d5 503c b4c9 053c
00000040: 083b 24ba 008f 4fbc 8087 673c d056 99bb
00000050: 3098 71bc 166f 16bc 0c9b acba b4ee 4b3c
00000060: 16e9 283c fe46 a13a 92c6 a6ba c2cc c2b9
00000070: 4512 a2ba 049b f13b 96e5 45ba d4a2 33bc
00000080: 63f5 82bc 43a1 483b e004 8c3b bcd4 183c
00000090: 8065 6ab7 2079 433c 352c 913b b6ef 023c
000000a0: dd31 283c 25a7 233a 64f8 9f3b 5887 60bc
000000b0: f895 c9ba 378f 313c 3db6 993b 91c9 a13b
000000c0: 9cd7 cc3b b7de 053c 529e 023c de7c 733c
000000d0: c845 a93a 4d57 803c d808 ebba 7c38 c0bb
000000e0: 1a5f 0dbc d36b 08bc de74 133c 201b de3a
000000f0: 2ca5 3c3c 1343 ac3c 8cde c3bb 22ba a23c
00000100: 74b8 efbb 133c 6dbc 92db 97bc dace cb3b
00000110: b521 20bd 95c2 19bc 61f9 4b3c 049a 41bb
00000120: b83e 823c 4a4e 933c 15dc 8f3c cf81 693c
00000130: ff14 b33b e450 b3bc c6b4 f7bb 3e95 eabc
00000140: 5770 00bc 9a1c 723c bdc8 b13b 3d29 81bc
00000150: f2c5 faba 7cf7 9ebb 7f1f 9e3b 3ce2 67bc
00000160: 26ee 00bd f94c b0bc 9ba4 b0bc 18f3 0abc
00000170: 55bb 33bd f68d 09bd a46f 303a b02d 98bc
00000180: e02b 6e3a 867f ffbb 477b 943a 5158 b6bd
00000190: cc76 46ba d7c9 6ebd b4fe 7dbd fa34 81bd
000001a0: aed5 92bc 1374 1ebd de6f cabc c13a 513c
000001b0: 65f5 033c b013 03bd 6a7a 94bc 6210 40bd
000001c0: d902 6cbd e1c1 a7bc cd5e 5ebd cec5 25bd
000001d0: 0847 b53b a155 b53b 18b7 00bc 7fb6 2dba
000001e0: 7e0a f13b 01fe 2f3b 0b7a 1abb 3636 1bbc
000001f0: 49fc 07bc 0d16 72bb 821a 56bc 15d4 503c
00000200: a615 493b 5216 f8ba 4579 b73c 4201 9cbc
00000210: c60e c73b 0d4b b33c 06de bfbc 86b9 36bd
00000220: a802 8cbc 8c75 46bc 761e a53c 79c1 ac3c
00000230: 66e7 993c 822f 08ba 75a5 5abc 557a d53c
00000240: c183 0f3c b4f8 50ba 4a1b 82bb d625 e7bb
00000250: 1479 57bb 429a adbc 7bad 15ba d797 bbbb
00000260: d709 a4bc 410c 74bc 703b 1bbc ec55 1abc
00000270: c5e0 02bd 1f99 27bd 6277 ac39 27cb e6bb
00000280: 05e7 0bbc 6b90 143c e9cb 35bc 207c 2a3c
00000290: 403f 6ebd 28a7 05bc 9e1a bbba 7cb5 77bb
000002a0: 2cd9 4cbd 9280 e8bc e55c 503c 61f1 f6b8
000002b0: 6714 5f3c 493b 1c3c 6c39 08bc 69a7 84bc
000002c0: 64e4 0dbc b3af 513b f86c 2ebd c78b 12bd
000002d0: 971e 343b fda9 503c 5ca9 c93b 4b39 a0bc
000002e0: 99ee 6dbc c645 21bd e9f6 88bc 5b0d a2bc
000002f0: f6e3 a73b 37cb 3dbd 71ed a13c 4ba8 ef3c
00000300: b861 9cbc 7d93 4bbc 0f51 8bbc 346a 953b
00000310: 1766 40bc c090 5bbc b69d b0bd 49c9 cabc
00000320: 6b36 2e3c 0b9f 9b3c 0500 cc3c b883 4bbc
00000330: 7f2a 55bc 52a1 04bb 9adf 45bc cca0 6bbc
00000340: 6670 11bc 953e 38bd 3391 c5bc f507 0d3c
00000350: 9fb4 7abb 2754 8d3b 439f 1bba a0eb 463c
00000360: 4d52 45bc cab8 563c be15 913c 5e95 0d3d
00000370: 8b9c beba 98d5 a1bc 0336 a6bb 5c0a d4bc
00000380: e217 9d3c 2c97 5abb c532 8f3c a154 40bc
00000390: f5e2 9f3c 1304 bcbb b37d 803c d375 e3bc
000003a0: 8323 e8bc 01d9 efbc 8eec b03c b712 e33b
000003b0: c54d c4ba e708 973c df33 44bc c933 003c
000003c0: 4049 333b 9c4d d1bc f096 fabb 3c3d 9bbc
000003d0: ccc6 32bd 012c e4bb 5625 b2bc 2e8d c7ba
000003e0: f4a7 a4bb f417 95bc a50a f2bc b9a5 db3b
000003f0: d354 01bd a155 21bc 1aaf 0ebc 038c 96bc
0.021053601 0.0078079905 0.0035505132 -0.0061457143 0.018962875 -0.012126073 0.008077121 0.009137057
-0.003842653 0.0035662162 0.002112349 0.0082969675 0.013329853 0.007192816 0.012746098 0.008165766
-0.00062649 -0.012668371 0.014131427 -0.0046795383 -0.014745757 -0.009181758 -0.0013168766 0.012447048
0.010309478 0.0012304483 -0.0012723973 -0.0003715512 -0.0012365064 0.0073732156 -0.00075491646 -0.010964114
-0.01598615 0.0030613698 0.004273042 0.009328064 -1.3971119e-05 0.011930734 0.0044303187 0.007991722
0.010265795 0.0006242863 0.0048819054 -0.013704143 -0.0015379777 0.010837368 0.004690914 0.0049373587
0.0062512886 0.008170775 0.007972317 0.014861314 0.0012914473 0.015666628 -0.0017931713 -0.0058661085
-0.008628631 -0.008326489 0.009000031 0.001694534 0.011513989 0.021028077 -0.0059774574 0.019864146
-0.0073156897 -0.014479655 -0.018537316 0.006219727 -0.039094646 -0.009384771 0.012449593 -0.0029541263
0.015899047 0.017981667 0.017560998 0.01425214 0.0054651494 -0.021889158 -0.0075593917 -0.028635617
-0.007839284 0.014777327 0.005425541 -0.015766734 -0.0019132479 -0.00485128 0.004825532 -0.01415306
-0.031477116 -0.021521078 -0.021562865 -0.00848081 -0.043879826 -0.03358265 0.0006730503 -0.018576473
0.00090855174 -0.0077971844 0.0011328243 -0.08903564 -0.00075708027 -0.05829796 -0.062010482 -0.063089326
-0.017924156 -0.038684916 -0.024711546 0.012770356 0.008054112 -0.032001197 -0.018124778 -0.046890624
-0.057619903 -0.02047819 -0.054289628 -0.040471844 0.005532149 0.0055338894 -0.007856153 -0.00066266203
0.007355987 0.002685428 -0.0023571278 -0.009473374 -0.008299896 -0.0036939413 -0.013067843 0.012745877
0.003068307 -0.001892755 0.022396693 -0.019043569 0.006074759 0.021886373 -0.023421299 -0.044610523
-0.01709111 -0.012112986 0.020156126 0.021088349 0.018787097 -0.00051950675 -0.013345112 0.026059309
0.00875944 -0.000797163 -0.0039705383 -0.007054071 -0.0032878565 -0.02119172 -0.00057097495 -0.005724888
-0.020024223 -0.0148955 -0.00947462 -0.009419899 -0.03195264 -0.040917512 0.00032895344 -0.0070432606
-0.008538966 0.009067635 -0.011095979 0.01040557 -0.05816579 -0.008157529 -0.00142749 -0.0037797382
-0.0500118 -0.02838162 0.01271746 -0.000117751544 0.013615704 0.009535619 -0.008314472 -0.016193109
-0.00866041 0.0031995594 -0.04258439 -0.035777833 0.0027484053 0.012735841 0.0061542224 -0.01955857
-0.014522218 -0.03937318 -0.016719298 -0.019781759 0.0051236106 -0.04633638 0.019766541 0.029255053
-0.019089565 -0.012425301 -0.017006425 0.0045597795 -0.01174309 -0.01340121 -0.08623831 -0.024754183
0.010633091 0.018996736 0.024902353 -0.012421541 -0.01301062 -0.0020237756 -0.012077237 -0.014381599
-0.0088768955 -0.044981558 -0.024117088 0.008607854 -0.0038254631 0.0043130103 -0.00059365126 0.012141138
-0.012043548 0.013105581 0.017710563 0.034566276 -0.0014542503 -0.01975517 -0.0050723567 -0.025883846
0.019176427 -0.0033354266 0.017480263 -0.011738927 0.019517401 -0.0057377904 0.015684938 -0.027766144
-0.028337246 -0.02927828 0.021597173 0.006929721 -0.001497679 0.018436862 -0.011975258 0.007824847
0.0027356893 -0.025549702 -0.0076473877 -0.018950097 -0.04364662 -0.0069632535 -0.021746319 -0.001522457
-0.0050249044 -0.018199898 -0.029546091 0.0067031053 -0.031575035 -0.009847076 -0.00870874 -0.01837731

momentum_buffer f4 [25]
00000000: b8dd 9e3e f7dc a33d 1732 b3bc 6238 603e
00000010: acdc d83c d73a 13be 2e12 563d 2efb 163f
00000020: 0a6d 8d3e 3ec1 b23e 94f6 c73e 3f3b d03d
00000030: d09a a13e 18df df3d 9b10 4b3d 80c2 9f3b
00000040: e461 3b3d 2006 ef3e 58ce 49bd c9ea cdbc
00000050: 5234 a3bd 36d2 503e 1804 683e a9c6 803e
00000060: 8e80 403e
0.31028533 0.0800113 -0.02187447 0.21896508 0.026472412 -0.14377914 0.05226343 0.5897702
0.27622253 0.34913057 0.39055312 0.1016755 0.31563425 0.10931224 0.049576383 0.004875481
0.045747653 0.4668436 -0.04926905 -0.025136368 -0.07968964 0.20392689 0.22657812 0.25151566
0.1879904

momentum_buffer f4 [15]
00000000: 16d0 7aba d982 05bc cdbc 24bd 1fac 383c
00000010: baee 223d 0f15 4b3b b79e 23bc ca6e aebb
00000020: c4fb a9bc 809f 183d fed1 0ebc d252 8839
00000030: 16b6 66bc 6a40 643c 772c 293b
-0.00095677504 -0.008148872 -0.040219117 0.011271506 0.03977845 0.0030987894 -0.009986571 -0.0053232657
-0.020749934 0.037261486 -0.008717058 0.00026001647 -0.014081499 0.013931373 0.0025813857
